model/u4_p2/checkpoint_0_0.8013.pth.tar (torch, 3223 bytes, 6 tensors)

fc0.weight f4 [4, 16]
000000 91 1f 12 c0 a2 03 89 3f 3d 2f 2d 40 8e ea f3 3f
       -2.2831767 1.0704234 2.7060082 1.9055955
000010 9c a5 d3 3f 7d 6a 36 40 a5 b4 30 bb 42 fd 28 40
       1.6534915 2.8502495 -0.0026963141 2.6404576
000020 ad b0 25 40 76 1b 61 40 28 93 4a 40 45 43 5d 40
       2.5889084 3.517301 3.1652317 3.4572308
000030 58 ac 2b c0 53 38 03 bf dd 8e bc bb fe 6e 86 bc
       -2.682394 -0.5125782 -0.0057543353 -0.016410347
000040 2c fc e7 3d 31 83 55 3a e3 ed 34 3b 6d e2 c8 be
       0.11327395 0.0008144854 0.0027607612 -0.3923525
000050 55 4c 1a 3d d5 16 fe 3d e3 88 21 bb d7 a2 4b bb
       0.037670452 0.124066986 -0.0024648241 -0.0031072402
000060 ba 65 11 be 19 1f 1d 3c e5 9b 15 be 88 cf 8e bd
       -0.14198962 0.009589934 -0.1461025 -0.06973177
000070 0c 7f 04 3e 78 29 48 3c 80 db 8f bc 93 11 04 3f
       0.1293909 0.012216918 -0.01756072 0.51589316
000080 da ce 3b 3e a2 43 48 bb cd ab 97 b9 13 5f c2 bb
       0.18340626 -0.003055789 -0.00028928966 -0.005931744
000090 d0 9f 60 3e 1a 19 84 3b 7e f6 08 be 38 f6 ec bb
       0.21935964 0.0040313127 -0.1337528 -0.0072315
0000a0 8d 5c 1c bc 7e b7 83 3a e4 37 3d 3a ec 2f b3 bd
       -0.00954355 0.0010049192 0.0007218106 -0.08749375
0000b0 f4 4e dd ba 7b a7 62 3d 49 ff 8a bd 87 e1 b8 3e
       -0.0016884492 0.055335503 -0.06786973 0.36109564
0000c0 68 60 52 40 bd e5 50 40 9c be 2f 40 a2 d6 00 40
       3.2871342 3.264022 2.7460089 2.0131001
0000d0 bf a2 ff 3f f1 69 27 40 09 83 66 40 d9 4c e9 3f
       1.9971541 2.6158412 3.6017478 1.8226577
0000e0 cd 88 f2 3f 13 57 0d c0 f0 83 00 40 dc f3 34 be
       1.8947998 -2.2084396 2.0080528 -0.1767115
0000f0 90 b9 67 40 32 15 64 40 6a 6b 60 40 17 04 32 40
       3.6207008 3.5637937 3.506556 2.7814996

fc1.weight f4 [2, 4]
000000 07 3d 55 c0 d2 aa 54 c0 d4 a6 51 c0 6f 9c 54 40
       -3.3318498 -3.322926 -3.2758074 3.322048
000010 27 7c aa 3f 08 1f 6f c0 a1 a6 6c c0 3f 37 63 c0
       1.3319138 -3.736269 -3.6976702 -3.550247

exp_avg f4 [4, 16]
000000 c1 cb e7 39 8f b7 80 ba 31 e6 66 bb 81 22 79 b9
       0.00044211562 -0.000982033 -0.003523242 -0.00023759344
000010 c0 a2 0b ba 25 2e 02 bc b4 47 84 39 6d 0e c6 ba
       -0.0005326681 -0.007945572 0.00025230425 -0.00151105
000020 07 3d 83 ba a5 ac 8b bc f8 22 4f bc 3d dc 8e bb
       -0.0010012694 -0.017050097 -0.012642615 -0.0043597505
000030 29 51 b5 3a b9 69 a4 3a 66 2a 18 ba 29 f0 01 b9
       0.0013833392 0.0012543715 -0.00058046577 -0.00012391865
000040 d3 c8 37 b6 2e 04 f2 b6 fa de b2 37 5d ae 95 36
       -2.738602e-06 -7.2126486e-06 2.1323085e-05 4.4608446e-06
000050 62 23 91 36 92 2c 5f 38 5d 40 05 b8 a9 aa 62 36
       4.325456e-06 5.3208852e-05 -3.1769614e-05 3.3775962e-06
000060 58 c4 86 35 7d 68 ab 38 55 cc c6 b6 f7 11 49 37
       1.0040922e-06 8.173378e-05 -5.924647e-06 1.1984716e-05
000070 a2 b9 a3 35 59 a8 46 37 60 95 de b7 32 25 73 36
       1.2198473e-06 1.1840916e-05 -2.653402e-05 3.6231472e-06
000080 a3 64 ac 37 5e e1 b6 38 f3 35 1f 38 df 75 b6 35
       2.055086e-05 8.720414e-05 3.79588e-05 1.3594362e-06
000090 9e 34 0e 38 1b 98 62 39 39 53 39 39 15 81 0a 38
       3.390444e-05 0.00021609703 0.00017673978 3.302198e-05
0000a0 c3 67 71 b3 84 d4 17 39 cc 48 6c 39 ef 28 3f 38
       -5.6206556e-08 0.0001447965 0.00022533833 4.557607e-05
0000b0 e6 d9 93 37 17 4f e6 38 38 aa b2 38 d0 3e 6f 37
       1.7625232e-05 0.00010981986 8.519407e-05 1.4260135e-05
0000c0 98 bd a5 ba 5d 25 da bb bc 9f 96 bb c7 15 26 ba
       -0.0012645004 -0.006657286 -0.0045966785 -0.00063356425
0000d0 00 fc 7c ba 6c a6 c5 bb 6b 73 97 bc d4 be 97 ba
       -0.0009650588 -0.006031802 -0.018487653 -0.0011577257
0000e0 67 0d a0 ba 90 2d 8d 3b e6 13 ce bb 87 4a 92 b8
       -0.0012211025 0.00430841 -0.006288993 -6.975704e-05
0000f0 8d cd 6c bb 3f cb 40 bc 12 1f 09 bc fe c8 5d ba
       -0.003613326 -0.011767208 -0.008369224 -0.0008460431

exp_avg_sq f4 [4, 16]
000000 35 89 1c 34 90 cf 83 36 8e 76 0b 37 20 31 25 34
       1.4578548e-07 3.9282677e-06 8.312649e-06 1.5384694e-07
000010 46 eb d2 34 42 a1 f2 37 67 9f b2 37 69 b8 c6 35
       3.9286732e-07 2.892374e-05 2.1293481e-05 1.480582e-06
000020 93 44 8e 35 a3 cb dc 38 83 8e 90 38 94 7c ef 36
       1.0599782e-06 0.00010528348 6.893e-05 7.137258e-06
000030 da a9 8f 35 38 f4 f9 36 6a cb aa 36 1c e2 d4 33
       1.0703764e-06 7.449209e-06 5.0900753e-06 9.913148e-08
000040 a6 1b 52 31 c7 14 74 34 da 0e a8 34 fd 9e 9e 31
       3.0574738e-09 2.273183e-07 3.1303244e-07 4.61648e-09
000050 5b 51 23 32 5a ba 49 35 73 36 cd 35 d6 76 0c 33
       9.506347e-09 7.514951e-07 1.5289537e-06 3.270437e-08
000060 9d f4 d1 32 13 2f 33 35 f4 66 c5 35 57 00 94 33
       2.444204e-08 6.67512e-07 1.4707607e-06 6.891849e-08
000070 ee 8e 01 33 e0 23 0a 35 75 97 b5 34 3a d7 76 31
       3.0165147e-08 5.146121e-07 3.3824077e-07 3.5920054e-09
000080 96 2a 74 31 5e df 86 34 ab b6 a2 34 ad 49 85 31
       3.553088e-09 2.5121966e-07 3.030776e-07 3.8791854e-09
000090 7a f3 40 32 42 2f 66 35 d4 b8 bf 35 3a 45 0a 33
       1.1231231e-08 8.5750446e-07 1.4284401e-06 3.219359e-08
0000a0 10 d4 c5 32 c6 ee 5c 35 aa 56 df 35 87 2b b7 33
       2.3030253e-08 8.230385e-07 1.6640017e-06 8.529519e-08
0000b0 b2 cb d3 32 34 1e 00 35 b1 bd bf 34 96 4f 92 31
       2.4656263e-08 4.7727667e-07 3.571454e-07 4.258207e-09
0000c0 39 96 1d 35 9e 10 85 37 55 a8 37 37 2d 82 6b 34
       5.870566e-07 1.5862573e-05 1.0946843e-05 2.1933438e-07
0000d0 e2 9a 26 35 69 86 ca 37 9c 05 01 39 9f a5 91 35
       6.2065203e-07 2.4142866e-05 0.00012304488 1.0851544e-06
0000e0 de c6 78 35 34 28 c5 37 07 c6 19 38 dc 84 0b 36
       9.267659e-07 2.3502951e-05 3.666247e-05 2.0789948e-06
0000f0 98 dc 91 36 ed 73 44 38 7a 9b ea 37 13 75 d9 34
       4.3470172e-06 4.6838006e-05 2.7967373e-05 4.0504582e-07

exp_avg f4 [2, 4]
000000 ad f0 72 3c 18 9f 7f 3c 95 c2 71 3c 67 d3 cf bc
       0.014827889 0.015601896 0.014755865 -0.02536936
000010 88 6e b7 bb bc cd 84 3c f6 be 7b 3c b2 36 84 3c
       -0.005597893 0.016211383 0.015365353 0.016139362

exp_avg_sq f4 [2, 4]
000000 51 de c0 38 39 bd ce 38 fb 3d cc 38 68 cc 90 39
       9.196683e-05 9.858091e-05 9.739023e-05 0.00027618115
000010 64 52 e9 38 77 80 d5 38 b3 4f d7 38 df a1 cb 38
       0.00011125652 0.0001018056 0.00010266844 9.709945e-05
