model/v16_u2/checkpoint_1_0.9675.pth.tar (torch, 3159 bytes, 3 tensors)

fc1.weight f4 [2, 16]
000000 e9 d2 cb c0 2b cd df 40 37 64 99 40 aa 52 a0 c0
       -6.369496 6.993795 4.7934833 -5.010091
000010 8d 13 d3 c0 97 76 e8 40 06 09 da 40 01 eb 48 40
       -6.5961366 7.2644763 6.8136015 3.1393435
000020 4c b6 79 c0 4a 13 df c0 8b 66 cf c0 16 5e 94 40
       -3.9017515 -6.9711046 -6.4812675 4.636485
000030 f9 a2 e5 40 d2 46 b8 c0 09 2f ec 40 75 f5 92 40
       7.176144 -5.758645 7.3807416 4.592463
000040 94 47 1b c0 68 b4 00 41 92 9b da c0 01 ef ca 40
       -2.4262438 8.0440445 -6.8314905 6.3416753
000050 09 e0 ad 40 7b 7a c7 3f 54 18 e7 40 2b 2e d3 c0
       5.433598 1.5584253 7.2217197 -6.5993857
000060 7a 14 66 bd 7c b8 f0 c0 74 cc a3 40 d0 e0 e4 c0
       -0.05617187 -7.52252 5.1187077 -7.152443
000070 55 43 f0 40 4d ef aa 40 06 0d 0a 40 a2 1f ef 40
       7.5082192 5.3417115 2.157045 7.4726114

exp_avg f4 [2, 16]
000000 bb e0 e0 3b 40 51 c1 bb 4a 3b 03 bc 54 a9 39 3c
       0.0068627275 -0.0058995783 -0.008009741 0.011331875
000010 ef ed 48 3c b6 e4 5a bc ba 37 09 bc 18 ce 28 bb
       0.012263759 -0.013360193 -0.008375103 -0.0025757607
000020 7a a1 27 3b bd 31 06 3c 0e 66 14 3c d0 66 f4 bb
       0.0025578425 0.0081905695 0.009057535 -0.0074585453
000030 2c 55 0a bc 1b b4 02 3c 60 36 45 bc a7 9c b6 bb
       -0.008443158 0.007977511 -0.01203689 -0.0055728736
000040 96 4d ac 3b c9 a7 07 bc 74 56 4a 3c a0 b0 41 bc
       0.0052582724 -0.008279749 0.012349714 -0.011821896
000050 c9 82 e2 bb fd 43 41 bb 04 6c 24 bc f3 c4 aa 3b
       -0.0069125635 -0.0029489987 -0.010035519 0.0052114665
000060 fb 83 50 bb ba f4 09 3c 61 ba c3 bb de e2 5f 3c
       -0.0031816948 0.008420164 -0.005973146 0.013664929
000070 43 04 18 bc cb 95 fd bb 5f 8a 2b ba e9 43 19 bc
       -0.00927836 -0.007738804 -0.0006543751 -0.00935457

exp_avg_sq f4 [2, 16]
000000 52 1b 45 38 cb 07 d7 37 db 70 94 38 63 2a de 38
       4.6993904e-05 2.5633626e-05 7.078211e-05 0.0001059368
000010 27 1e 90 38 9f 61 df 38 21 ec 68 38 bb 51 09 37
       6.8720714e-05 0.00010651652 5.5533023e-05 8.184866e-06
000020 0d f4 91 36 f6 18 71 38 e5 f9 44 38 09 c2 7c 38
       4.349748e-06 5.7482124e-05 4.6962774e-05 6.026219e-05
000030 50 86 f9 37 26 ae 91 38 de 30 84 38 a9 65 89 37
       2.9745657e-05 6.9465765e-05 6.303353e-05 1.6379012e-05
000040 71 b8 6a 37 49 73 20 38 78 7e 06 39 c9 eb 16 39
       1.39904305e-05 3.825434e-05 0.00012826349 0.00014392952
000050 f5 fc 34 38 81 27 5c 37 1e db 85 38 c8 ed cd 37
       4.315093e-05 1.312222e-05 6.382748e-05 2.454863e-05
000060 e9 c9 c2 36 6a e5 5b 38 86 b8 f0 37 3c bd 08 39
       5.805156e-06 5.2427327e-05 2.8696155e-05 0.00013040466
000070 50 e5 80 38 02 75 65 38 8b bb 07 37 b9 98 8d 38
       6.1462284e-05 5.4706827e-05 8.090293e-06 6.751851e-05
