model/v16_u2/checkpoint_9_0.9837.pth.tar (torch, 3159 bytes, 3 tensors)

fc1.weight f4 [2, 16]
000000 44 03 66 c1 24 06 6a c1 fb 2f 22 41 33 ea 00 c1
       -14.375797 -14.626499 10.136714 -8.057178
000010 d2 d4 8b 41 a2 94 82 c1 06 d6 90 c1 f4 9b 70 c1
       17.478916 -16.322575 -18.104504 -15.0380745
000020 79 14 ae c1 31 19 a4 41 bc e0 93 41 48 b2 9a 41
       -21.759996 20.5123 18.484734 19.337051
000030 05 30 10 c0 65 ee 4f c1 6e a4 53 40 3f 24 6b c1
       -2.2529309 -12.995702 3.306911 -14.696349
000040 1c 1a 4f 41 ff 31 0a 41 3c b2 61 c1 8f dd 85 41
       12.943874 8.637206 -14.106014 16.733183
000050 c9 98 a4 41 a9 fe 0f 41 2c e2 9f c1 03 f2 51 41
       20.574602 8.999673 -19.985435 13.121585
000060 65 a6 ad c1 ae 36 a2 41 9c 1d 88 41 42 f8 97 41
       -21.706247 20.2767 17.014458 18.99622
000070 4d 2f 91 41 84 40 2a 41 ee 35 79 c1 25 4f 48 41
       18.148096 10.640751 -15.575666 12.519322

exp_avg f4 [2, 16]
000000 56 17 1c 3c 3e 98 08 3c 29 26 c5 bb 11 d8 67 3b
       0.009527048 0.008337079 -0.006016512 0.0035376588
000010 49 ba c5 bb 9a b6 78 3c 91 fc e3 3b 9e 4c 33 3c
       -0.00603417 0.015180254 0.0069575985 0.01094356
000020 41 04 30 3c bd c5 55 bc ab d9 60 bc fa 1c 8a bc
       0.010743202 -0.013047633 -0.013723771 -0.01685952
000030 4f 42 5d 3b 3e ba 13 3c d5 61 54 bb 40 0d 07 3c
       0.0033761447 0.009016572 -0.0032406945 0.008242905
000040 65 a1 5f bb f5 94 b3 ba b0 6a ac 3b a1 57 da bb
       -0.0034123298 -0.0013701009 0.0052617416 -0.006663278
000050 f5 d8 31 bc ff eb 03 bb f3 28 68 3c 27 9e 81 bb
       -0.010854949 -0.0020129678 0.014169919 -0.003955621
000060 a8 23 19 3c ff 50 1a bc 0d aa f5 bb e1 d3 28 bc
       0.00934688 -0.009418725 -0.0074970783 -0.010304422
000070 d3 a5 26 bc 43 2b 49 bb d3 51 35 3c c8 46 95 bb
       -0.0101713715 -0.0030695952 0.011066872 -0.004555557

exp_avg_sq f4 [2, 16]
000000 c8 5b e4 38 c0 e4 aa 38 fd 9a 81 38 1b 08 2d 38
       0.00010888983 8.14884e-05 6.180068e-05 4.1253963e-05
000010 0c 19 88 38 fa 01 83 39 ca b0 b3 38 71 a3 17 39
       6.489651e-05 0.0002498774 8.568315e-05 0.00014461369
000020 1c 33 ef 38 42 6c 21 39 a8 42 31 39 4f 69 87 39
       0.00011405928 0.00015394486 0.00016904867 0.00025827668
000030 85 3c 8b 38 13 fe cd 38 21 12 9a 38 8b 3a da 38
       6.639309e-05 9.822487e-05 7.346669e-05 0.000104059545
000040 de e0 b2 38 17 12 26 38 c0 61 bb 38 7f 36 dd 38
       8.529586e-05 3.959433e-05 8.935062e-05 0.00010548252
000050 6f 5e 23 39 01 ed e1 38 1d 47 88 39 e0 25 dc 38
       0.0001558007 0.000107729815 0.00025992925 0.00010497472
000060 38 5b bd 38 6c 01 aa 38 c7 c2 55 38 3d 47 c9 38
       9.029213e-05 8.1064965e-05 5.0964558e-05 9.597696e-05
000070 70 22 5c 39 33 49 9a 38 a1 8b 81 39 c7 30 be 38
       0.00020993664 7.356927e-05 0.0002470883 9.0689915e-05
