model/v16_u2/checkpoint_6_0.9837.pth.tar (torch, 3159 bytes, 3 tensors)

fc1.weight f4 [2, 16]
000000 9f 27 65 c1 fc 13 69 c1 07 83 21 41 1a 8d 00 c1
       -14.322173 -14.567379 10.094489 -8.034449
000010 58 48 8b 41 f7 15 82 c1 ba 48 90 c1 dd b7 6f c1
       17.410324 -16.260725 -18.035511 -14.9823885
000020 81 73 ad c1 8c 7a a3 41 6e 46 93 41 92 15 9a 41
       -21.681398 20.434837 18.40939 19.260532
000030 d6 6e 0f c0 c9 12 4f c1 28 10 53 40 6b 52 6a c1
       -2.24114 -12.942086 3.297861 -14.645122
000040 bc 54 4e 41 e6 a1 09 41 6d c8 60 c1 0c 5b 85 41
       12.895687 8.602026 -14.048932 16.669456
000050 09 00 a4 41 d8 72 0f 41 69 48 9f c1 77 31 51 41
       20.500017 8.965538 -19.910357 13.074576
000060 18 05 ad c1 cb 98 a1 41 db 8b 87 41 7a 60 97 41
       -21.627487 20.199606 16.943289 18.922108
000070 86 a7 90 41 c5 81 29 41 5a 28 78 c1 e1 80 47 41
       18.081799 10.594182 -15.509851 12.468965

exp_avg f4 [2, 16]
000000 38 44 e1 3b ea ab db 3b 97 f4 7e bb 1c a7 d6 3a
       0.0068745874 0.0067038434 -0.003890311 0.0016376707
000010 68 3e da bb 0b a6 4c 3c 78 ab 09 3c 10 47 08 3c
       -0.0066602714 0.01249076 0.008402698 0.008317724
000020 3b 34 34 3c b2 fd 4d bc 9e 35 4c bc 0e e5 7f bc
       0.010998781 -0.012572693 -0.012463955 -0.015618576
000030 3e 02 3c 3a 6c 95 d8 3b 77 c7 e8 b9 a7 36 d8 3b
       0.0007171965 0.0066096094 -0.000443991 0.006598312
000040 aa 0c c1 bb 38 eb 39 bb 8c e9 ed 3b d3 95 0b bc
       -0.0058914023 -0.002836896 0.007260507 -0.008519608
000050 6d c6 39 bc 37 a1 99 bb 75 86 81 3c 0a 92 d1 bb
       -0.011338812 -0.0046884078 0.015811184 -0.006395583
000060 2e 7c 21 3c df a9 15 bc 7c 23 d4 bb 4c da 17 bc
       0.009856267 -0.009134739 -0.0064739566 -0.009268355
000070 e8 9d 53 bc f3 26 b3 bb 36 00 65 3c 32 84 d0 bb
       -0.012916066 -0.0054672896 0.013977101 -0.006363415

exp_avg_sq f4 [2, 16]
000000 92 c4 d9 38 31 81 a6 38 e5 09 7b 38 e6 83 27 38
       0.000103839804 7.9395606e-05 5.985228e-05 3.9938743e-05
000010 3c 67 82 38 b9 39 7b 39 43 a4 ab 38 5f 39 11 39
       6.218112e-05 0.00023958729 8.1845115e-05 0.0001384965
000020 97 17 e0 38 67 b3 18 39 3c 0f 28 39 26 71 7f 39
       0.00010685546 0.00014562682 0.00016027404 0.00024360846
000030 c1 3a 86 38 e2 8b cd 38 81 8f 9b 38 82 c0 d1 38
       6.400562e-05 9.801217e-05 7.417706e-05 0.00010001754
000040 1f 72 ab 38 e1 7b 23 38 03 34 b8 38 aa 80 d0 38
       8.175172e-05 3.89776e-05 8.783492e-05 9.9421784e-05
000050 76 c5 17 39 1e 80 dd 38 54 6c 81 39 49 8f d1 38
       0.00014474042 0.00010561965 0.00024685508 9.9925855e-05
000060 ec 43 b1 38 1c a1 a0 38 36 75 49 38 79 b7 bf 38
       8.452669e-05 7.6594035e-05 4.8031296e-05 9.141764e-05
000070 ed 0a 4f 39 63 75 97 38 21 ca 7b 39 fe ee b3 38
       0.00019745129 7.222106e-05 0.00024012524 8.579901e-05
