model/v16_u2/checkpoint_10_0.9837.pth.tar (torch, 3159 bytes, 3 tensors)

fc1.weight f4 [2, 16]
0	0xc1660dc7	-14.378364
1	0xc16a11cb	-14.629344
2	0x41223866	10.138769
3	0xc100eebc	-8.058285
4	0x418bdb8c	17.4822
5	0xc1829abb	-16.325552
6	0xc190dcb3	-18.107763
7	0xc170a6e9	-15.04075
8	0xc1ae1bdc	-21.763603
9	0x41a42095	20.51591
10	0x4193e813	18.488317
11	0x419ab9a5	19.340647
12	0xc0103a19	-2.253546
13	0xc14ff91b	-12.998317
14	0x4053ac3a	3.3073869
15	0xc16b2e55	-14.698812
16	0x414f236b	12.946147
17	0x410a38bf	8.638854
18	0xc161bd57	-14.108726
19	0x4185e3c2	16.73621
20	0x41a4a015	20.578165
21	0x4110053f	9.001281
22	0xc19fe97a	-19.989002
23	0x4151fb14	13.123798
24	0xc1adadbf	-21.709837
25	0x41a23e08	20.280289
26	0x4188249c	17.017876
27	0x4197ff78	18.99974
28	0x419135ba	18.151234
29	0x412a497a	10.642939
30	0xc17942c5	-15.578801
31	0x414858c2	12.521669

exp_avg f4 [2, 16]
0	0x3bc30bca	0.005952333
1	0x3bc3b3c7	0.005972359
2	0xbb405d09	-0.0029352328
3	0x3a266290	0.00063470844
4	0xbbed59bb	-0.0072433627
5	0x3c362427	0.011117018
6	0x3c112a97	0.008860252
7	0x3be5304a	0.006994282
8	0x3c2c7499	0.010525846
9	0xbc439c84	-0.011939172
10	0xbc439c27	-0.011939085
11	0xbc7c9fe4	-0.01541898
12	0xb932176f	-0.00016984133
13	0x3bb42ab4	0.0054982547
14	0x38f13d05	0.00011503141
15	0x3bafed60	0.0053688735
16	0xbbdb7c18	-0.0066981427
17	0xbb7522a0	-0.0037404671
18	0x3c058460	0.008149236
19	0xbc1c870b	-0.009553681
20	0xbc444204	-0.01197863
21	0xbbc12587	-0.005894366
22	0x3c852423	0.016252583
23	0xbbfa4afd	-0.007638334
24	0x3c1a4771	0.009416447
25	0xbc0eb136	-0.008709243
26	0xbbc2e3b8	-0.0059475563
27	0xbc177362	-0.009243818
28	0xbc5fa447	-0.013650007
29	0xbbd1f6ac	-0.0064075794
30	0x3c6c5c17	0.014426253
31	0xbbe99811	-0.0071287234

exp_avg_sq f4 [2, 16]
0	0x38e27c76	0.000107997024
1	0x38aa4ffd	8.121131e-05
2	0x3880515e	6.1186714e-05
3	0x382bea5c	4.098784e-05
4	0x3888fc3e	6.531969e-05
5	0x39839d1b	0.0002510332
6	0x38b62054	8.684458e-05
7	0x3917c059	0.00014472137
8	0x38f14363	0.00011504327
9	0x39227262	0.00015492135
10	0x3932435a	0.00017000493
11	0x39886c40	0.00026020594
12	0x388a5192	6.5955464e-05
13	0x38cc4ecd	9.742156e-05
14	0x38993bbc	7.306735e-05
15	0x38da3d6a	0.00010406489
16	0x38b2dfd2	8.529391e-05
17	0x3826242b	3.9611168e-05
18	0x38bb3ced	8.928203e-05
19	0x38df6856	0.00010652903
20	0x39258dad	0.00015788405
21	0x38e41efe	0.0001087766
22	0x3989b3ce	0.0002626464
23	0x38dde3ee	0.000105805564
24	0x38bef499	9.105466e-05
25	0x38ab29e2	8.161717e-05
26	0x38575df2	5.1347488e-05
27	0x38caa19e	9.662214e-05
28	0x395da14a	0.00021136287
29	0x3899e475	7.338162e-05
30	0x39822584	0.00024823484
31	0x38bf7465	9.12927e-05
