model/v16_u2/checkpoint_2_0.9868.pth.tar (torch, 3159 bytes, 3 tensors)

fc1.weight f4 [2, 16]
00000000: b747 2ec1 35e3 34c1 2e26 1c41 71e5 f8c0
00000010: 2edc 5ac0 73d8 24c1 6f55 2cc1 bcf2 f040
00000020: 14de b1c0 9bc5 3d41 af97 13c1 bd9f 1541
00000030: ce37 2f41 4f63 2541 256a 38c1 d66c 2541
00000040: 44a4 29c1 1cea 32c1 8e0b 1741 7656 1641
00000050: ff94 2341 b1d2 af40 8ba1 32c1 72cd 28c1
00000060: 7300 1e41 8018 2a41 16b3 23c1 6afc 00c1
00000070: 4e90 3941 36ff 1ac0 7322 15c1 92db 3241
-10.8925085 -11.30547 9.759321 -7.778008 -3.4196887 -10.302844 -10.770858 7.5296307
-5.558359 11.8607435 -9.224532 9.351499 10.951124 10.336745 -11.525914 10.339071
-10.602604 -11.182156 9.440321 9.396109 10.223876 5.494469 -11.164439 -10.550158
9.87511 10.630981 -10.231222 -8.061625 11.597731 -2.4218268 -9.32091 11.178606

exp_avg f4 [2, 16]
00000000: 4038 293c b146 273c b3cd 1fbb 5dea 283c
00000010: d14d 283b c6f9 223c e3ac b83b b30d ccbb
00000020: a1ae 703b bb5c 39bc 4df7 373a c267 2bbc
00000030: 4fb4 7bbb 519e 3bbc 2cb5 2d3c 5d09 f5bb
00000040: cf53 223c ecf0 383c 9351 59bb b02e 6dbc
00000050: 8382 79bc db48 35bb 9e05 c93b 6669 763c
00000060: 21dc 0ebc e8d0 ccbb 56c2 123b f76d 033c
00000070: 6c60 c3bb 2334 283b c9e4 8d3b a250 1bbc
0.010328352 0.010209725 -0.002438408 0.010309783 0.0025681148 0.009947246 0.005635844 -0.006227219
0.003672518 -0.011313613 0.00070177467 -0.0104617495 -0.0038407033 -0.01145132 0.010602277 -0.007477923
0.009907677 0.011287909 -0.0033160194 -0.014476463 -0.01522887 -0.0027661833 0.006134703 0.015039777
-0.008719475 -0.0062504895 0.0022393665 0.008021823 -0.005962422 0.0025665842 0.004330252 -0.009479674

exp_avg_sq f4 [2, 16]
00000000: 155c 9c38 bb7e 8838 4217 0637 a681 1e39
00000010: b224 5438 5894 c138 930a c737 4d69 c838
00000020: 7d35 0f38 3c1c bf38 5140 2d36 360e 0a39
00000030: e41e 5037 f99c 0e39 b82a aa38 aea6 6838
00000040: 8490 8438 eaee 9938 839e 0b37 f7b9 5f39
00000050: 14ba 4d39 c8df d837 b4ab a937 ca39 3d39
00000060: 3b96 aa38 5392 fe37 5c6f bb36 88bb b238
00000070: 3d46 c037 ba6a cf37 6013 7637 e076 8b38
7.455811e-05 6.508591e-05 7.9924375e-06 0.00015116352 5.0578914e-05 9.230588e-05 2.3727573e-05 9.556357e-05
3.414367e-05 9.112849e-05 2.5816446e-06 0.00013166 1.2404958e-05 0.00013600652 8.114189e-05 5.5468343e-05
6.3211686e-05 7.34011e-05 8.321952e-06 0.00021336215 0.00019619643 2.5853413e-05 2.0226325e-05 0.00018045973
8.134214e-05 3.0347297e-05 5.585998e-06 8.522632e-05 2.292089e-05 2.4726021e-05 1.4667254e-05 6.650179e-05
