model/v16_u2/checkpoint_5_0.9837.pth.tar (torch, 3159 bytes, 3 tensors)

fc1.weight f4 [2, 16]
000000 31 16 61 c1 49 9e 64 c1 66 4b 1e 41 cc a9 fd c0
       -14.067918 -14.288644 9.893408 -7.926977
000010 7c ab 88 41 5e 7d 7f c1 9e a4 8d c1 d4 7d 6b c1
       17.083733 -15.968107 -17.70538 -14.71822
000020 68 6f aa c1 64 83 a0 41 61 68 90 41 5e 2a 97 41
       -21.304398 20.064156 18.050966 18.895687
000030 ba b3 0b c0 8a 0f 4b c1 b1 47 50 40 f9 6e 66 c1
       -2.1828446 -12.691294 3.2543757 -14.402093
000040 99 b5 4a 41 83 05 07 41 30 8c 5c c1 c3 ec 82 41
       12.669335 8.438846 -13.784225 16.365606
000050 32 20 a1 41 37 e5 0c 41 96 6b 9c c1 50 aa 4d 41
       20.14072 8.805961 -19.552532 12.85408
000060 60 00 aa c1 22 a4 9e 41 76 d7 84 41 2e 90 94 41
       -21.250183 19.830143 16.605206 18.5704
000070 c8 26 8e 41 13 0c 26 41 85 3a 73 c1 0e c2 43 41
       17.768936 10.377948 -15.201787 12.234877

exp_avg f4 [2, 16]
000000 d6 ec 15 3c 5e 15 04 3c 84 83 d1 bb a8 7f 4e 3b
       0.009150704 0.008061735 -0.0063938517 0.0031509195
000010 8c 3c e3 bb e2 68 5f 3c aa 16 06 3c d0 29 22 3c
       -0.006934708 0.013635846 0.0081841145 0.009897664
000020 56 50 35 3c 6f e9 52 bc 73 44 52 bc b4 87 85 bc
       0.011066517 -0.012873038 -0.012833702 -0.01630006
000030 76 b1 68 3b 2e 67 03 3c 27 e9 33 bb 4c 10 0a 3c
       0.0035506166 0.008020205 -0.0027452202 0.008426737
000040 d1 73 80 bb 22 03 fb ba e2 7c a8 3b e2 6a ec bb
       -0.0039200564 -0.0019150714 0.0051418403 -0.00721489
000050 4b ee 3c bc 29 7c 67 bb 2d 21 78 3c 73 f0 a5 bb
       -0.011531423 -0.0035321808 0.0151446285 -0.005064064
000060 32 0d 1e 3c 04 0b 15 bc 46 8c d7 bb 46 2a 1e bc
       0.009646701 -0.009096865 -0.006578001 -0.009653633
000070 5c c0 21 bc d0 a1 89 bb 56 33 3b 3c c1 37 94 bb
       -0.009872522 -0.0042001978 0.011425814 -0.004523248

exp_avg_sq f4 [2, 16]
000000 d9 b0 d4 38 73 14 a4 38 26 4e 77 38 c5 a0 24 38
       0.00010141888 7.823938e-05 5.896217e-05 3.9250375e-05
000010 6b 48 7d 38 72 83 73 39 7b 19 a4 38 07 6f 0d 39
       6.0387345e-05 0.00023223253 7.8248755e-05 0.00013488169
000020 9d c9 d5 38 9d 8f 12 39 e2 41 22 39 ff 97 75 39
       0.00010194185 0.00013977145 0.00015474067 0.00023421644
000030 13 e8 82 38 03 55 cc 38 e9 9f 9a 38 93 50 cd 38
       6.24211e-05 9.743313e-05 7.373078e-05 9.79017e-05
000040 3e 11 a6 38 8d 52 21 38 04 85 b6 38 65 d7 c6 38
       7.9187084e-05 3.8462273e-05 8.7032124e-05 9.481496e-05
000050 7d f0 0f 39 c7 57 d9 38 47 6b 78 39 b8 ff cb 38
       0.00013727132 0.00010363716 0.00023691087 9.727426e-05
000060 bc 09 a9 38 d7 c6 99 38 1d cb 41 38 5d 41 b9 38
       8.060361e-05 7.332645e-05 4.620395e-05 8.833662e-05
000070 13 7e 46 39 aa a0 94 38 a9 0c 76 39 46 39 af 38
       0.00018929718 7.087116e-05 0.00023465104 8.355318e-05
