model/v16_u2/checkpoint_1_0.9873.pth.tar (torch, 3159 bytes, 3 tensors)

fc1.weight f4 [2, 16]
000000 d4 4b e7 c0 e1 1a ef c0 59 f6 d2 40 60 d7 a5 c0
       -7.2280064 -7.472031 6.5925717 -5.182541
000010 fc 8f 11 c0 4f bc e0 c0 53 f2 e5 c0 51 db a5 40
       -2.274413 -7.022987 -7.1858306 5.183022
000020 a0 7a 6c c0 6e 27 02 41 30 bb c6 c0 50 3f cc 40
       -3.6949844 8.134626 -6.21035 6.3827286
000030 5e d4 ea 40 a1 2b e1 40 ff 43 fa c0 17 b3 db 40
       7.3384237 7.036576 -7.8208003 6.8656116
000040 bc 43 e0 c0 54 e0 ef c0 6d 44 cd 40 50 4f cd 40
       -7.0082684 -7.496134 6.4146028 6.4159317
000050 02 7f dd 40 ba 0a 76 40 e5 24 ee c0 38 56 ea c0
       6.921754 3.8444047 -7.4420037 -7.3230247
000060 65 6c d7 40 fe b6 e4 40 47 79 d7 c0 0b 32 b1 c0
       6.7319818 7.147338 -6.7335544 -5.5373588
000070 d2 55 fd 40 ab 06 cd bf 1f b5 c2 c0 2a c8 ee 40
       7.916726 -1.601766 -6.0846095 7.461934

exp_avg f4 [2, 16]
000000 dd dc 1f 3c 63 28 1e 3c 31 cc 1d bb 35 64 4a 3c
       0.009757248 0.009653184 -0.0024078006 0.012352993
000010 59 fe a2 3b 3c 9a 3d 3c 7f f3 ab 3b ad 74 17 bc
       0.0049741683 0.011572417 0.005247533 -0.009244126
000020 3d 6f 95 3b 85 80 43 bc 7b ad e6 3a 0d f3 42 bc
       0.00456038 -0.011932497 0.0017599309 -0.011898768
000030 a2 ae 47 bb 04 d9 65 bc 7a 77 35 3c ad 58 0c bc
       -0.003046908 -0.014028791 0.011075849 -0.008566064
000040 c7 30 16 3c b1 bb 27 3c e9 d8 07 bb 11 84 42 bc
       0.009166903 0.01023762 -0.0020728654 -0.011872307
000050 df 57 4e bc 41 cf b6 ba dc b1 a5 3b 16 96 3c 3c
       -0.012594192 -0.0013947265 0.005056603 0.011510393
000060 8c 2b 09 bc b6 6b e3 bb 03 f2 4c 3b ee 56 ce 3b
       -0.008372199 -0.0069403304 0.003127218 0.006296984
000070 f7 93 a5 bb 13 9a de b9 50 e1 9e 3b 73 b7 28 bc
       -0.005053039 -0.00042457934 0.0048486367 -0.010297644

exp_avg_sq f4 [2, 16]
000000 4a c6 78 38 a9 3c 4c 38 2b 46 d0 36 a4 d7 f2 38
       5.931248e-05 4.8693884e-05 6.2070517e-06 0.000115796254
000010 f5 88 29 38 18 58 96 38 df d4 a0 37 55 24 95 38
       4.042029e-05 7.168966e-05 1.9172612e-05 7.111641e-05
000020 57 a8 e5 37 07 6c 92 38 be d3 05 36 c1 36 d9 38
       2.7377317e-05 6.981944e-05 1.9941795e-06 0.00010357565
000030 b6 e2 18 37 61 f4 e3 38 fa cd 7f 38 20 fd 40 38
       9.112691e-06 0.000108697226 6.098857e-05 4.601211e-05
000040 0c 0a 58 38 ce 21 71 38 de 59 e0 36 f1 05 2e 39
       5.150777e-05 5.749036e-05 6.686182e-06 0.00016596146
000050 22 4e 1f 39 48 28 af 37 10 a6 81 37 9e 47 0a 39
       0.00015192528 2.0880383e-05 1.5455327e-05 0.00013187385
000060 e8 0f 84 38 ec 6d d0 37 d1 ee 8d 36 94 49 8d 38
       6.297213e-05 2.4846719e-05 4.2299293e-06 6.737109e-05
000070 96 03 90 37 94 ee a8 37 f5 76 36 37 6a 56 55 38
       1.7167808e-05 2.0138257e-05 1.0875742e-05 5.0863637e-05
