model/v16_u2/checkpoint_0_0.9792.pth.tar (torch, 3159 bytes, 3 tensors)

fc1.weight f4 [2, 16]
00000000: 45b8 54c0 22d9 58c0 28d6 f13f 95da 4ac0
00000010: bb97 8040 d061 57c0 c104 60c0 c2d1 3cc0
00000020: 0fd6 9ec0 1552 8b40 f5fa 5d40 ff7b 6740
00000030: bcaf 343e 9c38 40c0 978f a13f ef61 81c0
00000040: 136b 3440 7df9 f43f e85a 52c0 e4f0 2b40
00000050: 9175 7c40 50b3 f43f 7196 89c0 171e 4d40
00000060: 74a4 8fc0 6993 7e40 cf76 1c40 5374 7a40
00000070: c064 8040 15fe 0740 4676 49c0 ce8c 1040
-3.323747 -3.3882527 1.889348 -3.1695912 4.018522 -3.365345 -3.5002902 -2.9503026
-4.96363 4.35377 3.4684422 3.6169431 0.17645162 -3.0034552 1.2621945 -4.043205
2.8190353 1.9138638 -3.2867985 2.6865778 3.9446757 1.9117222 -4.2996144 3.2049615
-4.488825 3.9777472 2.4447515 3.9133499 4.0122986 2.124883 -3.1478438 2.258594

exp_avg f4 [2, 16]
00000000: f952 023c 6b69 1a3c 2116 28bb aebb 803b
00000010: df5d f3bb a407 143c 3917 f13b 9751 fd3b
00000020: 6bf5 183c 858b 47bc 5666 32bc b0c5 6ebc
00000030: cd11 6cba 46f2 163c 98f3 abba 0f5c eb3b
00000040: 5d9c bcbb d67d 39bb 5115 313c 7a73 e2bb
00000050: 98ed fdbb 5047 d7bb 1ea6 823c 3ac1 dfbb
00000060: 0b09 033c ba3b 0abc 5da3 24bb c71b 1fbc
00000070: 7643 42bc 0768 bebb 791a 893c 3dbf cdbb
0.007954353 0.009424548 -0.0025647955 0.003928623 -0.007426962 0.009035025 0.0073575047 0.0077306735
0.009335856 -0.01217926 -0.010888657 -0.0145735 -0.0009005338 0.009213036 -0.0013118861 0.007182605
-0.0057559446 -0.0028303764 0.010808305 -0.0069107385 -0.0077492706 -0.0065697804 0.015948351 -0.0068284543
0.0079977615 -0.0084370915 -0.0025121786 -0.0097112125 -0.011856904 -0.005810741 0.016736256 -0.006278901

exp_avg_sq f4 [2, 16]
00000000: e8de fb37 524e 1e38 4f0f bd37 9ad6 7a37
00000010: 736d d837 5e89 7238 daba 9137 4701 da37
00000020: 506b b837 eb9d 1a38 7797 6838 1e37 9538
00000030: ffcc 1f37 007b 6c38 6fe5 0d38 aa2d f037
00000040: 4bd5 9b37 2773 9037 0c2f 3738 727a 6d37
00000050: ed53 bb37 3515 f237 6869 8038 e9b9 a037
00000060: 4a78 7337 50cc 9137 1a5a 2d37 4a09 ed37
00000070: 863c 2c38 fc44 1438 681b f138 a418 9937
3.002533e-05 3.7743077e-05 2.2537684e-05 1.4951127e-05 2.5800173e-05 5.782523e-05 1.7372357e-05 2.598822e-05
2.198448e-05 3.6863534e-05 5.5454173e-05 7.11514e-05 9.524868e-06 5.6381337e-05 3.3830696e-05 2.8631493e-05
1.8576762e-05 1.721976e-05 4.3674416e-05 1.415481e-05 2.2331218e-05 2.8858523e-05 6.123149e-05 1.9160057e-05
1.4511936e-05 1.7380487e-05 1.0332582e-05 2.8256927e-05 4.1064362e-05 3.5350196e-05 0.0001149688 1.8250495e-05
