model/v16_u2/checkpoint_2_0.9837.pth.tar (torch, 3159 bytes, 3 tensors)

fc1.weight f4 [2, 16]
00000000: b003 0bc1 3fbc 0ac1 8ff2 b540 dc92 b8c0
00000010: e048 2741 fb11 1ac1 faed 2ac1 261c 10c1
00000020: fa7c 53c1 c0b8 4341 75bc 2741 5d69 3241
00000030: 6115 69bf 651c f7c0 e319 1840 068e 15c1
00000040: 8d1c f940 1ff6 a040 0216 06c1 34bc 1a41
00000050: 8aa9 4341 28f5 ab40 fed4 3ec1 1995 0041
00000060: 5f1f 50c1 b8db 3e41 7bfc 1141 321c 3241
00000070: c2ef 2e41 cbba bb40 bf97 0dc1 f8de e240
-8.6884 -8.6709585 5.685859 -5.767927 10.455292 -9.62939 -10.6831 -9.006872
-13.218012 12.232605 10.48351 11.150723 -0.91048247 -7.722216 2.37658 -9.347174
7.784735 5.030044 -8.380373 9.670948 12.228891 5.3736763 -11.927 8.036401
-13.007659 11.928642 9.124141 11.131884 10.933535 5.866552 -8.849547 7.089718

exp_avg f4 [2, 16]
00000000: 65af 9c3b 24d7 913b 76a5 01bb 0f83 92ba
00000010: 8055 02bc 0c83 073c 0f59 223c 9a72 a03b
00000020: 7901 283c 4f0b 3abc e743 3abc 7942 64bc
00000030: e58e d4ba c8c5 803b d61c f13a 4145 673b
00000040: 543b 06bc 7332 9bbb aa37 173c a771 35bc
00000050: ad59 5ebc 7268 11bc bd51 923c 0c16 24bc
00000060: 4b1a 203c 21cc 03bc 89de c1bb 5ff0 f5bb
00000070: 7465 79bc 5317 febb bad0 833c 7666 13bc
0.004781651 0.0044506956 -0.001978246 -0.0011177975 -0.007954955 0.00827099 0.009908929 0.004896474
0.010254257 -0.011355235 -0.011368728 -0.013931864 -0.0016216902 0.0039298274 0.0018395435 0.0035289081
-0.008192856 -0.0047362386 0.00922958 -0.01107446 -0.013571185 -0.008874999 0.017861241 -0.010015022
0.009771894 -0.008044274 -0.005916421 -0.007505461 -0.015221942 -0.0077542453 0.01609074 -0.008996597

exp_avg_sq f4 [2, 16]
00000000: f318 9a38 bf4a 8938 3825 3b38 b632 fd37
00000010: fd26 5138 93ec 2339 4ad5 6738 19ab bf38
00000020: 8be9 9238 7ae7 d538 6beb ed38 9976 3139
00000030: 9882 2238 a69d b738 386c 7638 2fe5 9a38
00000040: e91b 6d38 2f21 0538 e44e 9e38 8728 8338
00000050: 9bdb b638 1f9e 9938 e866 3339 0e22 8b38
00000060: c9df 5c38 55bd 5638 78a0 f337 b518 8738
00000070: fff5 0539 eb82 7438 68da 4939 56d9 7038
7.3479394e-05 6.5465916e-05 4.4618937e-05 3.0183564e-05 4.9865794e-05 0.00015633022 5.5273333e-05 9.139459e-05
7.005323e-05 0.00010199747 0.00011344891 0.00016924216 3.8745435e-05 8.755484e-05 5.8751757e-05 7.385981e-05
5.6531197e-05 3.1740576e-05 7.5487216e-05 6.2541156e-05 8.719341e-05 7.325061e-05 0.00017109106 6.63438e-05
5.2660504e-05 5.1197905e-05 2.9042581e-05 6.441904e-05 0.00012775509 5.829606e-05 0.00019250216 5.742287e-05
