tests/model/u4_p4/checkpoint_2_0.5132.pth.tar (torch, 3287 bytes, 6 tensors)

fc0.weight f4 [4, 16]
0	0xbc93467a	-0.017977942
1	0x39939330	0.00028147688
2	0x38310130	4.2201194e-05
3	0xbc2db2ff	-0.010601758
4	0x3bc10160	0.0058900565
5	0x3adaf003	0.0016703609
6	0xbb0e8a48	-0.0021749903
7	0x3abaca41	0.001425095
8	0xbb1d3b8b	-0.002399179
9	0xbae068fc	-0.0017121132
10	0xba293b7c	-0.0006455702
11	0x3a187f9e	0.0005817356
12	0xb97b7dee	-0.00023984138
13	0x3a91bc78	0.001111879
14	0xbb296c78	-0.0025852006
15	0x3d3b44b6	0.045719825
16	0xbe805d6d	-0.25071278
17	0xbb8bf805	-0.0042715096
18	0xbaead5cc	-0.00179165
19	0x3ad21e80	0.0016030818
20	0xbbf874c2	-0.007582278
21	0xbd90de8f	-0.070737
22	0x3ab150a6	0.0013528063
23	0xbd4383bd	-0.047733057
24	0xbb42383e	-0.0029635574
25	0x3ae6b79c	0.0017602327
26	0xbb2c747a	-0.0026314543
27	0xba3fba00	-0.0007313788
28	0x3e47d8db	0.19516318
29	0x3b199148	0.0023432542
30	0x3c57f3ca	0.013180682
31	0xbc421304	-0.011845354
32	0x3ee6d514	0.4508444
33	0xbca46684	-0.020068415
34	0xbc973e57	-0.018462343
35	0xbd16c937	-0.036812987
36	0xbe37c15f	-0.17944859
37	0xbab4b630	-0.0013787206
38	0xbca89608	-0.020579353
39	0xb925ae88	-0.00015800644
40	0x3c4704b1	0.012147115
41	0xba1e2673	-0.0006032951
42	0x386490a0	5.449413e-05
43	0xbaf03c46	-0.001832851
44	0x3db42a91	0.087971814
45	0x3e1bfe8d	0.15233822
46	0x3abc3f2e	0.0014362091
47	0x3d9669db	0.07344409
48	0xbdef5b27	-0.11687308
49	0x39da1f27	0.0004160341
50	0xbe3dc170	-0.18530822
51	0xbb40afcc	-0.0029401658
52	0xbaa870f3	-0.0012851044
53	0xbb5a61ea	-0.0033322521
54	0x39373bcc	0.00017474516
55	0x3b99cab9	0.004693356
56	0xbbb4d6ce	-0.005518771
57	0x3a5329d7	0.0008055246
58	0x3afc087a	0.00192286
59	0xb76e0680	-1.4187419e-05
60	0x3ca4bd52	0.020109806
61	0x3a6d5186	0.00090529805
62	0x3c1c4205	0.009537225
63	0x3b1fc57d	0.0024379187

fc1.weight f4 [4, 4]
0	0xc1195f66	-9.585791
1	0xc11d3ee4	-9.827854
2	0xc123ea78	-10.244743
3	0xc1132188	-9.195686
4	0x41152306	9.321051
5	0x411e9ea2	9.913729
6	0x41153948	9.326485
7	0x4115714f	9.340163
8	0xc12db5d8	-10.856895
9	0xc130defe	-11.054441
10	0x412e0e7c	10.878536
11	0x41294438	10.579155
12	0xc125c5ab	-10.360759
13	0x4127a72b	10.4783125
14	0xc12f7bc2	-10.967714
15	0x412843d4	10.51656

exp_avg f4 [4, 16]
0	0x38a8866f	8.0359045e-05
1	0x3a3732ce	0.00069884665
2	0x39f33966	0.00046391337
3	0xb6bc957a	-5.620238e-06
4	0x3947fcc9	0.00019072289
5	0x3aad8804	0.0013239388
6	0x3ab9f998	0.0014188765
7	0x37e43777	2.7205546e-05
8	0x3882e8ab	6.242221e-05
9	0x3a6b83db	0.00089841866
10	0x3ab13707	0.0013520428
11	0x399a2f1c	0.00029408268
12	0x37617532	1.3438332e-05
13	0x3a473d79	0.00076004077
14	0x3a83f2ff	0.0010066925
15	0x394a6c4b	0.00019304563
16	0x39474062	0.00019002103
17	0x3afa07f8	0.0019075861
18	0x3b21452e	0.0024607885
19	0x39518a16	0.00019983234
20	0x3a03b09f	0.0005023572
21	0x3b7c2cfc	0.0038478961
22	0x3b8a1940	0.004214436
23	0x39f54964	0.00046784722
24	0x3a1ba61a	0.0005937532
25	0x3ba2e169	0.0049707186
26	0x3bb5a0e5	0.0055428618
27	0x3ac07ac3	0.0014685023
28	0x3983a5e3	0.00025109862
29	0x3b2147f9	0.002460955
30	0x3b16d088	0.0023012478
31	0x39a5b43c	0.00031605538
32	0x382c9318	4.1144987e-05
33	0x39f779b5	0.0004720219
34	0x39d39c14	0.00040361343
35	0x375ded25	1.3227841e-05
36	0x3882d116	6.237828e-05
37	0x3a7c14ef	0.00096161565
38	0x3a5195bd	0.000799503
39	0x3838e527	4.4082433e-05
40	0x38762687	5.8686852e-05
41	0x3a85520e	0.0010171549
42	0x3ab51c81	0.0013817699
43	0x395a0046	0.00020790202
44	0x36dbbba4	6.548553e-06
45	0x3a12fa00	0.0005606711
46	0x3a1b45f8	0.0005923207
47	0x38795e89	5.945427e-05
48	0xb80dd7da	-3.3818047e-05
49	0xb9b08408	-0.00033667707
50	0xba6c6ef5	-0.00090192194
51	0xb9341f4b	-0.00017177795
52	0xb8bc0710	-8.965854e-05
53	0xba8bd0d1	-0.001066709
54	0xbac39a9f	-0.00149234
55	0xb98b0b02	-0.00026520347
56	0xb995b2d1	-0.00028552723
57	0xbaeb3718	-0.0017945496
58	0xbaeb1b2d	-0.0017937176
59	0xb99d0106	-0.00029946136
60	0xb894ae6e	-7.08968e-05
61	0xba5109b4	-0.0007974163
62	0xba1730a2	-0.000576744
63	0xb76981aa	-1.3918072e-05

exp_avg_sq f4 [4, 16]
0	0x3487ef4c	2.531982e-07
1	0x37f383ea	2.9029285e-05
2	0x384d9c77	4.9021528e-05
3	0x3525dd3b	6.178922e-07
4	0x35b59ffa	1.353211e-06
5	0x39100778	0.00013735692
6	0x393cb031	0.00017994714
7	0x36924eb9	4.3603036e-06
8	0x365fdd6c	3.3358474e-06
9	0x393f907f	0.00018269008
10	0x39911fcf	0.00027680254
11	0x3772f3ef	1.4481119e-05
12	0x35c35c81	1.4555554e-06
13	0x385fb243	5.3333362e-05
14	0x383b4c53	4.4655357e-05
15	0x3508786c	5.0839185e-07
16	0x34566e7c	1.9970497e-07
17	0x37a9223b	2.016231e-05
18	0x3808ca53	3.2613356e-05
19	0x34e6bb06	4.2976916e-07
20	0x356d2dfa	8.8356285e-07
21	0x38b80800	8.775294e-05
22	0x390a32d8	0.00013179646
23	0x364108cc	2.8764362e-06
24	0x361aa05e	2.3041134e-06
25	0x38df489a	0.00010646992
26	0x393aee6d	0.00017827163
27	0x370fa60c	8.562125e-06
28	0x35af883a	1.3078163e-06
29	0x3828981e	4.019599e-05
30	0x3802afa4	3.1157993e-05
31	0x34aeb08c	3.253848e-07
32	0x342fde62	1.6379047e-07
33	0x37a23d36	1.9340408e-05
34	0x38083ab7	3.247961e-05
35	0x34dd85d5	4.1261833e-07
36	0x3582ff47	9.76005e-07
37	0x38cbdea0	9.7212614e-05
38	0x38f5118d	0.000116857795
39	0x3650ae50	3.1095879e-06
40	0x36202071	2.3860741e-06
41	0x390dd919	0.00013527683
42	0x394b9dab	0.00019418325
43	0x37309b36	1.0526555e-05
44	0x354f223b	7.716332e-07
45	0x380ce2e1	3.35899e-05
46	0x37f88439	2.9625475e-05
47	0x34b7a72f	3.4208048e-07
48	0x348b4b17	2.5945403e-07
49	0x37d97aee	2.592566e-05
50	0x382e78d1	4.159735e-05
51	0x35140613	5.5143136e-07
52	0x35a279aa	1.210535e-06
53	0x38f8d11d	0.00011864512
54	0x392d6b7e	0.0001653861
55	0x36860aa6	3.994751e-06
56	0x36524369	3.1331676e-06
57	0x391efce0	0.00015162257
58	0x3978199b	0.00023660662
59	0x374abe9f	1.2084521e-05
60	0x35cf3f57	1.5441136e-06
61	0x384e9a07	4.9257676e-05
62	0x3826f0a8	3.9801613e-05
63	0x34ede674	4.4312367e-07

exp_avg f4 [4, 4]
0	0x3d25d38f	0.04048496
1	0x3d1249b1	0.03571481
2	0x3d5202e2	0.05127228
3	0x3d40be25	0.047056336
4	0xbd1e6588	-0.038671046
5	0xbd24bcc4	-0.040219083
6	0xbd295008	-0.04133609
7	0xbd266805	-0.040626545
8	0x3c8fe0bd	0.017563218
9	0x3c830fd3	0.015998757
10	0xbc3ed918	-0.011648439
11	0xbc169e35	-0.009192993
12	0x3c1f0cd1	0.0097076455
13	0xbc4784e6	-0.012177682
14	0x3c85f954	0.01635424
15	0xbc938db4	-0.018011905

exp_avg_sq f4 [4, 4]
0	0x3b08975e	0.0020842175
1	0x3b01e067	0.0019817592
2	0x3b13aa58	0.0022531953
3	0x3b0644cd	0.0020487786
4	0x3ac47318	0.0014987914
5	0x3ae90f9e	0.0017781144
6	0x3ac7fdaa	0.0015258093
7	0x3ad7c877	0.0016462941
8	0x391b007e	0.00014782135
9	0x39451a8b	0.00018797272
10	0x393a7a0a	0.00017783805
11	0x39203436	0.00015278239
12	0x39204fb2	0.00015288478
13	0x39397879	0.00017687854
14	0x39449b05	0.00018749766
15	0x391aa029	0.00014746249
