tests/model/u4_p4/model_best.tar (torch, 3223 bytes, 6 tensors)

fc0.weight f4 [4, 16]
00000000: 58df 28c0 ce82 9d3f c4c4 2e40 baf2 fd3f
00000010: c55a ee3f 253a 4140 a582 3abc 14b8 3040
00000020: cdea 3b40 3eb6 8640 bda8 6440 e194 7340
00000030: a975 52c0 f997 8abf f643 9b3b 52b7 88be
00000040: 417f 6b40 10fe 6740 4cff 3940 ef9c 0940
00000050: 1f08 1740 9327 3040 d343 6e40 74ed c63f
00000060: 5e31 df3f a051 1ac0 d7f2 0e40 ba02 6cbe
00000070: 3a0a 7640 644b 5840 9833 5440 9c7c 4b40
00000080: 9d0f 993e cce5 84bd e18f 123e aab7 8cbe
00000090: fae5 95bb da38 bf3d 31f1 edbd 1bae 243d
000000a0: cef2 0ebb 00c9 81bc 0b0f 9f3d 5fdb 16be
000000b0: 238b 2e3d aeb8 b43a 00e9 e538 48a2 c43e
000000c0: 1fc7 b9be 407b 723b fd95 b0bd 9a61 9d3e
000000d0: ce9a 40bb 0cd7 5abe 5f1b 4d3b a40a 39bd
000000e0: 762e 60bb db97 a43e 756c 1abb c463 313b
000000f0: 3c93 9c3b f682 a63d ff3f 9a3d e32c 33bc
-2.6386318 1.2305543 2.7307596 1.9839699 1.8621451 3.0191739 -0.011383687 2.7612352
2.936206 4.2097464 3.572799 3.8059618 -3.2884314 -1.0827628 0.004738326 -0.26702362
3.679642 3.6248817 2.906207 2.1502035 2.3598707 2.7524154 3.7228897 1.5541215
1.7436941 -2.411232 2.2335718 -0.23047915 3.8443742 3.3796015 3.315649 3.1794806
0.29894724 -0.06489143 0.14312698 -0.27483875 -0.0045745345 0.093370155 -0.11618269 0.040205102
-0.0021812203 -0.015842915 0.07766541 -0.14732121 0.04261316 0.0013787949 0.000109629706 0.3840506
-0.3628473 0.0036999732 -0.08622358 0.30738527 -0.0029389146 -0.21371096 0.0031296832 -0.045176163
-0.003420738 0.32147107 -0.002356318 0.0027067522 0.004778294 0.081304476 0.075317375 -0.010935995

fc1.weight f4 [2, 4]
00000000: 6760 39c0 a4ce 5c40 cb0c 2dc0 fbd8 2ec0
00000010: 568a 9a3f 1342 5bc0 b694 57c0 7243 54c0
-2.896509 3.4501123 -2.7039058 -2.7319934 1.2073467 -3.4259079 -3.3684516 -3.3166165

exp_avg f4 [4, 16]
00000000: 017f 3e3a b8d5 21b9 40ff 7cbb aeca 0fba
00000010: 538c 9fb9 8ed5 cabb a574 873a 5ca0 07bb
00000020: 6ff1 bcba a52a 94bc a423 3cbc d799 87bb
00000030: facd a13a e634 ac3a 58f1 4b3a 2b8b 6839
00000040: d340 c6ba d0ae e1bb ad13 82bb 1b71 60b9
00000050: 3f7f 98ba 34b0 e7bb 3422 92bc ffd2 01ba
00000060: 2dcd 21ba b223 a93b c965 e6bb 80d5 2fb9
00000070: 1d74 54bb ce19 35bc 9bdc 14bc c3f6 8aba
00000080: 4c0a e2b7 76b8 20b9 0afa 99b8 bdb9 a6b6
00000090: 8b17 4cb8 b87e 39b9 e116 9db9 dae2 3ab8
000000a0: de9f 28b8 9e55 29b9 490d 76b9 b952 e3b8
000000b0: 69ca 59b7 3bb5 31b9 f033 17b9 c9f2 b7b7
000000c0: 083e 3ab7 912a e4b5 e640 9237 4645 ac36
000000d0: fa61 b5b7 5d40 d7b8 4ca9 e2b8 39b0 e2b7
000000e0: 91a1 6cb7 818b 7d38 3926 33b8 6327 aeb7
000000f0: aabb 54b6 2633 ceb6 34ab 5eb8 656f 46b7
0.000726685 -0.00015433773 -0.003860429 -0.0005485219 -0.00030431393 -0.0061900085 0.0010334445 -0.0020694947
-0.0014415215 -0.01808674 -0.011483107 -0.004138212 0.0012344711 0.0013138324 0.00077797985 0.00022177088
-0.001512552 -0.0068872944 -0.0039696307 -0.0002140444 -0.0011634602 -0.0070705656 -0.017838575 -0.00049524003
-0.0006172236 0.005161726 -0.0070311767 -0.00016768835 -0.0032417842 -0.011053516 -0.0090858 -0.0010602105
-2.6946094e-05 -0.00015327506 -7.342182e-05 -4.9688083e-06 -4.8659316e-05 -0.00017690181 -0.0002996242 -4.4557128e-05
-4.020321e-05 -0.00016148991 -0.00023465337 -0.00010839612 -1.2981335e-05 -0.00016947549 -0.0001441983 -2.1928356e-05
-1.1100907e-05 -1.6999712e-06 1.7434777e-05 5.134064e-06 -2.1622505e-05 -0.000102639875 -0.00010808054 -2.702336e-05
-1.4104314e-05 6.0449824e-05 -4.2712523e-05 -2.0760757e-05 -3.1699697e-06 -6.145233e-06 -5.308837e-05 -1.1827656e-05

exp_avg_sq f4 [4, 16]
00000000: 5976 2134 12f9 7a36 a570 0c37 20e6 4234
00000010: c715 d234 f56f e637 05b3 9237 d753 c635
00000020: 2001 8f35 5d89 d438 56bf 8b38 49f3 e336
00000030: 60c8 5535 fe58 c436 9e33 9a36 198c e733
00000040: 94a1 1535 1d5e 8037 ac86 3a37 cf00 8c34
00000050: a9c0 1935 7428 cb37 615a f238 f727 8e35
00000060: cf45 8235 7b33 ca37 b1a0 1d38 7390 0336
00000070: 6049 8936 522c 3838 36ab e037 96ca d734
00000080: 9488 f430 3de1 0a34 474f 4f34 ea40 2431
00000090: 486e c731 387f 0335 cca5 5035 1afc 9332
000000a0: a137 6a32 d69e 1335 6936 7f35 7a0e 5433
000000b0: 4193 6232 f14e 9134 ebdf 5734 33bc 2031
000000c0: 8450 8c31 4f50 a434 79f4 cc34 f04f a031
000000d0: 8bef 7332 276c 8435 60c3 f935 38fa 3233
000000e0: 5121 0e33 ee5c 6c35 b04d 0336 2e5f f033
000000f0: 5a9f 1933 4970 2735 ea89 e834 d5cd b331
1.5037348e-07 3.739788e-06 8.370877e-06 1.8151377e-07 3.9131393e-07 2.747027e-05 1.7487919e-05 1.477655e-06
1.0654658e-06 0.00010134534 6.6636756e-05 6.7934493e-06 7.964027e-07 5.8516152e-06 4.5955667e-06 1.0782259e-07
5.574195e-07 1.5302614e-05 1.111782e-05 2.607762e-07 5.72773e-07 2.4218323e-05 0.000115562936 1.0591456e-06
9.706072e-07 2.4104249e-05 3.7581372e-05 1.9604602e-06 4.09146e-06 4.3910295e-05 2.6782607e-05 4.019427e-07
1.7792154e-09 1.2934193e-07 1.9307218e-07 2.390204e-09 5.8042e-09 4.898643e-07 7.7727304e-07 1.7227695e-08
1.3633241e-08 5.4992904e-07 9.507408e-07 4.9373263e-08 1.3188413e-08 2.7065792e-07 2.0104896e-07 2.3390043e-09
4.08369e-09 3.0605813e-07 3.8175838e-07 4.6657007e-09 1.4198927e-08 9.866243e-07 1.8608807e-06 4.1671427e-08
3.3092252e-08 8.805208e-07 1.9565741e-06 1.1193184e-07 3.5768018e-08 6.2375744e-07 4.3313713e-07 5.232986e-09

exp_avg f4 [2, 4]
00000000: 8e25 6a3c 3571 cabc cb9c 6b3c f28a 6a3c
00000010: 5e70 d9bb 85ba 8b3c d287 8b3c e7fe 8a3c
0.01429118 -0.024712184 0.014380644 0.014315354 -0.0066357097 0.017056713 0.017032538 0.01696725

exp_avg_sq f4 [2, 4]
00000000: 125c c938 e0ff 9839 5438 d838 164a d038
00000010: 1745 0d39 5030 cd38 4eda df38 e94e d638
9.601576e-05 0.0002918234 0.000103101745 9.9320125e-05 0.00013472546 9.784161e-05 0.00010674131 0.00010219013
