model/u2_p2/checkpoint_2_0.4868.pth.tar (torch, 2839 bytes, 6 tensors)

fc0.weight f4 [2, 16]
0	0x410febb4	8.995045
1	0x41018761	8.0955515
2	0x40aadde1	5.339585
3	0x4029e460	2.654564
4	0x40961900	4.6905518
5	0x408bcc95	4.3687234
6	0x410afe0e	8.687025
7	0x3fe31328	1.7740221
8	0x4019590a	2.3960595
9	0xc0f1e08c	-7.5586605
10	0x403ef966	2.983972
11	0xc076dd49	-3.8572562
12	0x4113716f	9.215194
13	0x410e6b91	8.901261
14	0x410231c7	8.137153
15	0x40efefb4	7.4980106
16	0x4116b595	9.419332
17	0x410eb24c	8.9185295
18	0x40b60f82	5.689393
19	0x4013bf7e	2.3085628
20	0x409a6606	4.824954
21	0x4094b89c	4.6475353
22	0x411b280b	9.697276
23	0x3fad99f3	1.3562607
24	0x4017444f	2.3635442
25	0xc0f21473	-7.5649962
26	0x401c6d05	2.444154
27	0xc07714ad	-3.860637
28	0x41269eb3	10.413745
29	0x411e7b59	9.905114
30	0x4116c1ed	9.422345
31	0x40f7789a	7.733472

fc1.weight f4 [2, 2]
0	0xc1187632	-9.528856
1	0x4119f756	9.622885
2	0xc11f0cb6	-9.940603
3	0xc11e9f63	-9.913913

exp_avg f4 [2, 16]
0	0xba5811bc	-0.0008242389
1	0xbba3fc07	-0.0050044092
2	0xbb2bf0ae	-0.0026235986
3	0xb888c7ec	-6.522224e-05
4	0xb9840dbf	-0.00025187244
5	0xbb5ecfff	-0.0033998487
6	0xbc777e70	-0.015105829
7	0xb89f2e26	-7.5903066e-05
8	0xb95ef742	-0.0002126368
9	0x3c06625b	0.008202161
10	0xbafa4ec2	-0.0019096958
11	0x3aab5941	0.0013072864
12	0xbb40fd9d	-0.002944804
13	0xbc18fb6e	-0.009337289
14	0xbbeadef7	-0.0071676928
15	0xba3aa537	-0.0007119956
16	0xba5811bc	-0.0008242389
17	0xbba3fc07	-0.0050044092
18	0xbb2bf0ae	-0.0026235986
19	0xb888c7ec	-6.522224e-05
20	0xb9840dbf	-0.00025187244
21	0xbb5ecfff	-0.0033998487
22	0xbc777e70	-0.015105829
23	0xb89f2e26	-7.5903066e-05
24	0xb95ef742	-0.0002126368
25	0x3c06625b	0.008202161
26	0xbafa4ec2	-0.0019096958
27	0x3aab5941	0.0013072864
28	0xbb40fd9d	-0.002944804
29	0xbc18fb6e	-0.009337289
30	0xbbeadef7	-0.0071676928
31	0xba3aa537	-0.0007119956

exp_avg_sq f4 [2, 16]
0	0x358fd67d	1.0716755e-06
1	0x37e3944e	2.7129568e-05
2	0x37a8398b	2.0053956e-05
3	0x350189f7	4.825701e-07
4	0x358b7b3e	1.0392175e-06
5	0x383d9653	4.520111e-05
6	0x3970f9c9	0.00022981236
7	0x35fbc803	1.8759168e-06
8	0x35f8148d	1.8483421e-06
9	0x38a6e453	7.9580255e-05
10	0x389f529f	7.5971e-05
11	0x36b844cb	5.491636e-06
12	0x36f01afd	7.155699e-06
13	0x38afa479	8.375286e-05
14	0x38523310	5.0115457e-05
15	0x3546ff4e	7.4132265e-07
16	0x358a2ac1	1.0294244e-06
17	0x37cd7566	2.4492572e-05
18	0x37916374	1.7331658e-05
19	0x34f4af09	4.5575896e-07
20	0x3588bca5	1.0187692e-06
21	0x382a567c	4.0611703e-05
22	0x395addc4	0.00020872714
23	0x35efaa8c	1.7856523e-06
24	0x35ee9a71	1.777733e-06
25	0x38a69f0b	7.945121e-05
26	0x388e4f80	6.785896e-05
27	0x36b78da1	5.4703128e-06
28	0x36dc1ebe	6.56009e-06
29	0x389ed8c9	7.5744065e-05
30	0x383debb5	4.528063e-05
31	0x353e93de	7.099569e-07

exp_avg f4 [2, 2]
0	0x3ce29ae3	0.027661746
1	0xbce29ae3	-0.027661746
2	0x3ce29ae2	0.027661745
3	0x3ce29ae2	0.027661745

exp_avg_sq f4 [2, 2]
0	0x3a1f2f92	0.0006072457
1	0x3a1f2f92	0.0006072457
2	0x3a1f2f91	0.00060724566
3	0x3a1f2f91	0.00060724566
