model/u4_v2/checkpoint_2_0.9461.pth.tar (torch, 3543 bytes, 3 tensors)

fc0.weight f4 [4, 16]
7.000565 -0.010820844 -5.503845 -3.4209223 -1.599554 -6.4582987 3.054674 -5.311689
-3.335925 -10.664351 -7.7303967 -9.222244 9.93093 3.8582983 1.183819 2.6967866
9.933032 7.729195 2.0084748 0.07341247 3.9491518 1.1357862 8.538244 0.08283458
0.9307589 -7.168427 -0.0018091535 -4.1866198 10.724538 9.134723 8.274289 7.590949
0.15642868 0.101071686 0.019981721 -0.15076706 0.021806374 -0.08767129 0.0077880127 -0.057596765
0.1296487 0.018122798 0.00069633184 0.018680226 -0.019655302 -0.40133443 -0.0079791965 0.72642666
-0.5599643 -0.950454 -0.008549812 0.36609724 -0.30877084 -0.0012124457 -0.7702027 0.0709548
-0.006011967 0.64041126 0.11215317 0.25862926 -0.550629 -0.68617177 -0.37563634 -0.8016734
00000000: a104 e040 e949 31bc 801f b0c0 64f0 5ac0
00000010: 2fbe ccbf 62aa cec0 c77f 4340 5bf9 a9c0
00000020: cc7f 55c0 2fa1 2ac1 695f f7c0 508e 13c1
00000030: 17e5 1e41 5cee 7640 6287 973f 2798 2c40
00000040: b3ed 1e41 9155 f740 da8a 0040 4759 963d
00000050: e7be 7c40 7161 913f a69c 0841 2da5 a93d
00000060: 3746 6e3f c163 e5c0 1e21 edba caf8 85c0
00000070: b597 2b41 d327 1241 7d63 0441 0ee9 f240
00000080: d72e 203e acfe ce3d b5b0 a33c ae62 1abe
00000090: 48a3 b23c 018d b3bd 9632 ff3b 96ea 6bbd
000000a0: a1c2 043e 4376 943c 0a8a 363a 4607 993c
000000b0: 2804 a1bc b57b cdbe 2dbb 02bc 19f7 393f
000000c0: d259 0fbf f450 73bf 8314 0cbc 1971 bb3e
000000d0: 3617 9ebe edea 9eba 012c 45bf c050 913d
000000e0: 0900 c5bb fef1 233f 90b0 e53d 0e6b 843e
000000f0: 06f6 0cbf f4a8 2fbf 6853 c0be 783a 4dbf

exp_avg f4 [4, 16]
-0.0007034491 0.0008633451 0.005096088 0.00060243503 0.00040537817 0.010445657 -0.0009134869 0.0023187883
0.0014167763 0.025771769 0.01757439 0.0058162366 -0.002385675 -0.0019832395 0.00023351712 -0.000117820484
-0.0011376957 -0.0030362527 0.001183882 0.0003619338 -0.00012812259 0.0040358235 -0.010083019 0.0015116209
0.0008136175 0.020107022 0.007938836 0.0041287662 -0.0033862323 -0.007628983 -0.004412595 -0.00051045616
4.4654685e-06 -2.6849439e-05 -7.8758094e-05 -1.222025e-05 -1.1004868e-05 -0.0001133825 -0.00010672894 -3.072858e-05
-2.6623846e-05 -0.00014846514 -0.00012912383 -4.550421e-05 -5.317447e-06 -6.086611e-05 -4.9214428e-05 -6.175707e-06
-4.3482655e-06 8.85731e-05 0.00017945746 2.0739226e-05 1.3271814e-05 0.00029675604 0.0003299617 3.146386e-05
2.4597983e-05 0.0003865466 0.00040961258 5.0475017e-05 -2.8984116e-06 0.0001639634 0.00015314635 -1.7615698e-06
00000000: ac67 38ba 1c52 623a 16fd a63b bbec 1d3a
00000010: f088 d439 4324 2b3c 1177 6fba d0f6 173b
00000020: 20b3 b93a 511f d33c 2bf8 8f3c 2196 be3b
00000030: fc58 1cbb 3df9 01bb 46dc 7439 6416 f7b8
00000040: bc1e 95ba defb 46bb 7d2c 9b3a efc1 bd39
00000050: a558 06b9 f13e 843b 3f33 25bc 9521 c63a
00000060: f248 553a 7bb7 a43c e411 023c 9a4a 873b
00000070: 8deb 5dbb 8cfc f9bb 8897 90bb 22d0 05ba
00000080: 15d6 9536 bb3a e1b7 ee2a a5b8 9305 4db7
00000090: 8ca1 38b7 c4c7 edb8 aad3 dfb8 90e2 00b8
000000a0: 4656 dfb7 4fad 1bb9 6a65 07b9 c6db 3eb8
000000b0: 866c b2b6 7d4a 7fb8 976b 4eb8 eb38 cfb6
000000c0: 51e7 91b6 52c0 b938 bf2c 3c39 26f9 ad37
000000d0: 02aa 5e37 ec95 9b39 b6fe ac39 10f8 0338
000000e0: c457 ce37 68a9 ca39 45c1 d639 23b5 5338
000000f0: 5582 42b6 97ed 2b39 e995 2039 146f ecb5

exp_avg_sq f4 [4, 16]
9.641816e-07 3.2569133e-05 5.0458155e-05 1.154432e-06 2.0641992e-06 0.00015303785 0.0001836978 5.519313e-06
4.0481673e-06 0.0004555029 0.00034580435 2.6227623e-05 6.7573787e-06 6.1692524e-05 4.726608e-05 7.7908356e-07
1.5458052e-06 4.330394e-05 3.907572e-05 1.0331303e-06 2.0888447e-06 0.00010608753 0.00029199774 4.6076543e-06
3.7399518e-06 0.0002617642 0.00021684919 1.5495185e-05 1.0357639e-05 0.00010459845 6.675865e-05 1.0288679e-06
5.969588e-10 5.8303925e-08 1.0782614e-07 1.9616107e-09 4.1816777e-09 2.8243647e-07 3.1967525e-07 1.35557965e-08
1.09293365e-08 4.981777e-07 6.2778514e-07 4.4245237e-08 4.355376e-09 9.972763e-08 7.6674226e-08 8.61781e-10
2.3934215e-09 1.6440144e-07 3.5016674e-07 5.8188276e-09 9.019383e-09 9.628645e-07 1.0030881e-06 2.9958663e-08
2.4685095e-08 1.9686358e-06 2.077399e-06 1.2105065e-07 1.6514587e-08 3.010649e-07 2.5459505e-07 3.3107044e-09
00000000: 0769 8135 d79a 0838 08a3 5338 fbf1 9a35
00000010: ac86 0a36 c978 2039 019f 4039 8a32 b936
00000020: 7ed5 8736 90d0 ee39 134d b539 6403 dc37
00000030: 71bd e236 ec60 8138 913f 4638 3722 5135
00000040: 7679 cf35 40a1 3538 3ce5 2338 16aa 8a35
00000050: 142e 0c36 4f7b de38 4617 9939 739b 9a36
00000060: e2fb 7a36 653d 8939 0362 6339 a8fb 8137
00000070: b9c5 2d37 de5b db38 c700 8c38 a217 8a35
00000080: 3e17 2430 d869 7a33 0c8e e733 05cd 0631
00000090: 6dae 8f31 c6a1 9734 d59f ab34 06e3 6832
000000a0: bbc3 3b32 83ba 0535 1185 2835 2708 3e33
000000b0: 4ba6 9531 d829 d633 1aa8 a433 72e2 6c30
000000c0: 8479 2431 5386 3034 8dfe bb34 f3ee c731
000000d0: aaf3 1a32 c63b 8135 d8a1 8635 e6ab 0033
000000e0: 190b d432 e81c 0436 7169 0b36 26fa 0134
000000f0: f6db 8d32 0ba2 a134 47af 8834 8782 6331
