model/u4_v2/checkpoint_2_0.6387.pth.tar (torch, 3543 bytes, 3 tensors)

fc0.weight f4 [4, 16]
00000000: 5651 4340 9cdb 733c 9e8b b7bf 96d3 2fbf
00000010: 8bcb 9ebf 5dbe d5bf 71ab f73f 2972 00c0
00000020: 2218 9fbf 5477 54c0 68ab 04c0 2770 1dc0
00000030: 4640 ad40 f01a ed3f aaf5 033f cf53 3d3f
00000040: d4fe 233f 0f57 94bb 0453 863b cbce b43c
00000050: 5007 a13e fb73 863e 0fd3 1d3f 5e10 c3be
00000060: 77da e93c 2dce 9abe 0632 0cbc 17f8 b7bd
00000070: 5557 71be 735f 5c3e 66c9 d63e 711d 923e
00000080: ade1 19c1 56e4 f3c0 5944 0bc0 2b28 c2bc
00000090: 99d3 69c0 1ec7 93bf 9b7d 05c1 057b cd3b
000000a0: 963c 82be 9c8a e940 2deb 1dba 2d17 8040
000000b0: f6ab 2ec1 66e7 13c1 a70f f8c0 10b0 e2c0
000000c0: 1273 2b41 59a9 f440 be84 2c40 bf0a cb3e
000000d0: 1b67 5b40 08ce a33f c27a 0d41 cb9b 52bc
000000e0: b936 ce3e b3e9 e9c0 cda5 b63a 3738 8bc0
000000f0: 351c 3641 92ee 1c41 7fd4 0741 866a f440
3.0518394 0.014883902 -1.4339483 -0.6868223 -1.2405866 -1.6698719 1.9349195 -2.0069678
-1.242924 -3.3197832 -2.0729618 -2.4599702 5.414096 1.8523846 0.5154673 0.73956007
0.6406071 -0.0045269798 0.0040992517 0.022071263 0.31450891 0.2626036 0.61650175 -0.38098425
0.028546555 -0.30235425 -0.008556848 -0.08982866 -0.23568471 0.21520786 0.4195053 0.28538087
-9.617597 -7.621623 -2.1760466 -0.023700794 -3.65354 -1.1545141 -8.343165 0.0062707686
-0.25436848 7.29817 -0.00060241186 4.002829 -10.916983 -9.243994 -7.7519107 -7.083992
10.715593 7.6456723 2.695602 0.39656636 3.428168 1.2797251 8.84247 -0.012854527
0.40276125 -7.3097777 0.001393491 -4.350612 11.3818865 9.808245 8.489379 7.6380033

exp_avg f4 [4, 16]
00000000: 8c86 f6b6 a18c 1138 2fa3 3439 4b77 3437
00000010: 98be bdb6 5922 5d39 d48f f137 6277 7d36
00000020: 7b79 0538 ec05 ed39 db70 af39 7b28 9d38
00000030: 45a4 07b8 9b07 b937 91f0 6c38 6781 f535
00000040: 18e7 9d36 8b7d 98b7 9622 76b8 fad0 97b6
00000050: d37a 45b6 a90b 77b8 0a49 16b8 bd09 82b7
00000060: 52be 15b7 1ed7 30b9 d34d 28b9 b363 1cb8
00000070: abba 7c36 3eab 46b6 b444 1c35 d67f 4835
00000080: 2d71 a33a 4935 ca3b 4160 f53a 1808 0037
00000090: 0028 2e3a 35c8 1a3b e400 943c a03c 073a
000000a0: bbcf af39 0772 34bc 74ae 263b 0860 d0ba
000000b0: a970 5f3b e177 363c 2a17 053c a0dc 3b3a
000000c0: d267 afba edc2 dbbb ca80 0cbb 3bd1 75b7
000000d0: dc29 3aba 8adc 3bbb b68f 9fbc 5db2 03ba
000000e0: 0a9b 91b9 156d 3b3c f318 4dbb 43c1 da3a
000000f0: 6445 6ebb 037a 45bc a3b8 11bc 7b18 4cba
-7.3470346e-06 3.4701665e-05 0.00017226928 1.0756611e-05 -5.654827e-06 0.00021088998 2.8796414e-05 3.7769428e-06
3.182281e-05 0.00045208575 0.00033462685 7.4938835e-05 -3.2339496e-05 2.205726e-05 5.649083e-05 1.8291584e-06
4.7058675e-06 -1.8178273e-05 -5.868318e-05 -4.5244788e-06 -2.942678e-06 -5.890025e-05 -3.583081e-05 -1.5501742e-05
-8.9254045e-06 -0.00016864805 -0.0001605072 -3.728615e-05 3.7659581e-06 -2.9603975e-06 5.8214505e-07 7.469183e-07
0.0012469642 0.006170903 0.0018720703 7.631279e-06 0.00066435337 0.0023617868 0.018066831 0.0005158875
0.00033533372 -0.011013514 0.0025433572 -0.001589776 0.003409425 0.01113698 0.0081231985 0.00071663596
-0.0013382381 -0.0067065866 -0.002143907 -1.4651853e-05 -0.00071015744 -0.0028665387 -0.019477706 -0.00050238316
-0.00027772068 0.011439581 -0.0031295388 0.0016689677 -0.0036357278 -0.012053016 -0.0088941185 -0.00077856303

exp_avg_sq f4 [4, 16]
00000000: 779a 9431 a6a3 d534 a19e 6335 125e 6132
00000010: 6948 0d33 d4c6 2c36 b25d f935 db10 e533
00000020: 8e00 b233 74db bf36 3bdc be36 3b1e eb34
00000030: 1c3d bf32 9a59 0d35 4537 0935 e386 f931
00000040: 00a3 6531 3213 4934 6b77 9334 65e6 5f31
00000050: 5e24 1b32 6528 5a35 fbc9 8e35 870e ad32
00000060: 0b66 7d32 e1b6 9e35 df90 db35 651b c333
00000070: 03f6 4232 81f4 b334 7077 9e34 d820 8031
00000080: d231 d135 77ec 5f38 7994 6438 918e 9335
00000090: 3c03 2336 8fb5 1f39 1a73 bc39 ab37 d036
000000a0: 676e 9c36 ea79 9e39 d9a3 a739 6701 af37
000000b0: 7ac3 2d37 bd67 0139 8d19 aa38 ff3d 9835
000000c0: 2a1b da35 b566 6338 f96d 6d38 1d77 9a35
000000d0: 91ef 2b36 7e78 2639 ec91 c039 ca4c dd36
000000e0: d1da a836 064f b039 a1ab ae39 b515 c337
000000f0: cb37 3d37 cd9b 0539 557b ae38 1702 9e35
4.3249275e-09 3.9793412e-07 8.4794925e-07 1.3118113e-08 3.2894977e-08 2.574573e-06 1.8579215e-06 1.06667095e-07
8.288872e-08 5.7177913e-06 5.6880795e-06 4.3794157e-07 2.2263116e-08 5.265698e-07 5.1116905e-07 7.2621886e-09
3.341654e-09 1.8726567e-07 2.7467772e-07 3.2581735e-09 9.030456e-09 8.127011e-07 1.0638609e-06 2.0146457e-08
1.474974e-08 1.1825142e-06 1.6358935e-06 9.085378e-08 1.1348223e-08 3.3519248e-07 2.9516696e-07 3.729024e-09
1.5586213e-06 5.338757e-05 5.4497712e-05 1.0993846e-06 2.4290775e-06 0.00015231057 0.00035943912 6.2053637e-06
4.662015e-06 0.0003022694 0.00031974798 2.0862279e-05 1.03571165e-05 0.00012341044 8.110991e-05 1.1342926e-06
1.6250171e-06 5.421667e-05 5.6607623e-05 1.1508561e-06 2.5620432e-06 0.0001587588 0.00036729814 6.5952527e-06
5.0322637e-06 0.00033628213 0.0003331574 2.325592e-05 1.1278268e-05 0.00012741909 8.319939e-05 1.1772526e-06
