model/u4_v2/checkpoint_2_0.9817.pth.tar (torch, 3543 bytes, 3 tensors)

fc0.weight f4 [4, 16]
000000 3f 70 28 41 38 72 0d 41 60 17 41 40 1e 0f 66 3f
       10.527404 8.840385 3.0170517 0.89866817
000010 f0 77 91 40 c4 79 ef 3f d4 cc 19 41 4e 6f 1d 3f
       4.545891 1.8709035 9.612507 0.6149796
000020 88 aa bd 3f 6d cf 06 c1 cf 1f 2d bb 46 db 9f c0
       1.4817667 -8.425641 -0.0026416664 -4.995517
000030 b3 7e 33 41 5d d6 25 41 92 00 14 41 c4 37 02 41
       11.218432 10.364835 9.250139 8.138615
000040 a2 01 d4 40 9c d4 dc 3b d4 a6 b1 c0 9c f5 52 c0
       6.6251993 0.006739212 -5.5516148 -3.2962408
000050 e4 b5 98 bf 74 15 c7 c0 b5 6a 4c 40 f2 ee a8 c0
       -1.1930509 -6.221369 3.1940129 -5.279168
000060 89 ca 5c c0 70 c0 2a c1 a6 34 f5 c0 f0 e0 0e c1
       -3.4498618 -10.671982 -7.662677 -8.929916
000070 13 d8 1b 41 26 72 80 40 7c 99 90 3f 79 61 20 40
       9.7402525 4.013934 1.129684 2.5059493
000080 da c8 1b 3d 47 60 77 bc 06 f3 9e ba 3d 49 58 3c
       0.038033344 -0.015098638 -0.001212687 0.013201055
000090 b3 79 05 bc 76 6b 4c 3d 19 40 a1 3e 9a 25 01 bd
       -0.008146691 0.04990717 0.31494215 -0.03153
0000a0 10 cf 3c 3e 6c aa 46 ba b7 61 55 3e 0f e9 09 bc
       0.18438363 -0.00075784954 0.20838057 -0.008417382
0000b0 df 27 d2 bc 6c fe c1 3b ff bc 99 bc 80 fc eb 3e
       -0.025653778 0.005920222 -0.018766878 0.4609108
0000c0 0d 13 bc be 96 13 0b bb f5 6f 07 be 7d 19 65 bd
       -0.36733285 -0.002122139 -0.13226302 -0.05593251
0000d0 7b 13 40 3b be af 14 bd 6c 98 1f bd 22 e1 56 ba
       0.0029308486 -0.036300413 -0.03896372 -0.00081969996
0000e0 17 43 8f 39 c0 b1 5a 38 18 e2 9f 3d 12 76 98 be
       0.0002732507 5.2140793e-05 0.07806796 -0.2977758
0000f0 4b f3 c4 3e fa 62 99 3e 09 bb 69 3e 2a f3 36 3e
       0.38466868 0.29958326 0.22825254 0.17866197

exp_avg f4 [4, 16]
000000 05 61 92 ba 64 3b cf bb 3b 25 8e bb 4a 32 07 ba
       -0.001116783 -0.0063242186 -0.0043379343 -0.0005157335
000010 97 f1 35 ba d1 32 86 bb e1 93 a3 bc 4c 43 64 ba
       -0.0006940602 -0.0040954133 -0.019967975 -0.0008707538
000020 84 97 a8 ba 49 3b 02 3c 40 25 b2 bb 62 81 a6 3a
       -0.0012862538 0.007948705 -0.0054365695 0.0012703354
000030 3d 29 8a bb 74 7a 56 bc a4 43 0b bc e6 fa 3d ba
       -0.004216342 -0.013090719 -0.0085000135 -0.00072471646
000040 1a 3a 08 ba aa 36 86 b9 6f 25 24 3b 5d 7c b9 34
       -0.0005196646 -0.000255992 0.0025046726 3.4549421e-07
000050 d0 39 21 39 9f 8e e0 3b 76 46 bf bb 5c 12 1d 3a
       0.00015375693 0.0068529393 -0.005837257 0.00059918105
000060 9a 52 64 b7 3b 86 a1 3c ba 65 3e 3c be 92 91 3b
       -1.3609091e-05 0.019717326 0.011620933 0.004442542
000070 24 a9 37 bb c7 97 97 bb 2b b7 9d ba 04 e5 06 b9
       -0.00280244 -0.0046262476 -0.0012032738 -0.00012864551
000080 5e 7b 03 b7 51 79 98 b8 69 99 f7 b8 2c 6e 99 36
       -7.836932e-06 -7.270522e-05 -0.00011806453 4.572581e-06
000090 4c c2 d9 b4 88 21 31 b9 b6 65 06 b9 8f 8a 30 36
       -4.056077e-07 -0.00016892527 -0.00012817126 2.6306695e-06
0000a0 b2 da f0 b6 f1 a1 61 b9 20 e3 86 b9 6f cc f2 b7
       -7.178017e-06 -0.00021518 -0.00025727693 -2.8943845e-05
0000b0 c1 eb c1 b6 f4 b5 61 b8 60 71 bc b8 b4 33 33 b7
       -5.7792936e-06 -5.3813637e-05 -8.985656e-05 -1.06812695e-05
0000c0 0f 58 8e b5 76 da b8 36 52 8d fe 37 eb eb 8a 36
       -1.0605453e-06 5.5090595e-06 3.0344967e-05 4.140185e-06
0000d0 a3 8c a7 b6 c7 2d c5 37 c3 f1 a9 37 88 8a af b6
       -4.99336e-06 2.3505547e-05 2.0258949e-05 -5.2315336e-06
0000e0 6a b9 67 36 d5 3f 43 38 a5 23 3b 38 d8 e1 ac 35
       3.4529608e-06 4.655107e-05 4.461747e-05 1.2880728e-06
0000f0 d0 c6 30 33 d6 2e a1 37 4f 58 7d 37 54 ec ef 35
       4.1159012e-08 1.9214505e-05 1.5100536e-05 1.7875668e-06

exp_avg_sq f4 [4, 16]
000000 47 7e cd 35 75 ce 2a 38 7f 27 1c 38 1b d3 6e 35
       1.5310442e-06 4.0723437e-05 3.7230082e-05 8.896911e-07
000010 fc 54 08 36 4b 12 d4 38 32 83 95 39 15 dd 85 36
       2.0315047e-06 0.00010112355 0.00028517243 3.989446e-06
000020 ad f5 63 36 a1 1f 7f 39 98 0e 51 39 d5 65 71 37
       3.3968638e-06 0.00024330478 0.0001993723 1.4388429e-05
000030 78 13 2b 37 8f 16 d9 38 ce 9a 8a 38 d5 a1 8d 35
       1.0196927e-05 0.00010351568 6.6091874e-05 1.0552418e-06
000040 5c 0d 93 35 c8 67 0e 38 9e e1 5f 38 fe 25 98 35
       1.0956242e-06 3.3952092e-05 5.3377466e-05 1.133594e-06
000050 62 43 1b 36 c9 95 2b 39 31 58 45 39 0f 94 bd 36
       2.3136022e-06 0.0001636363 0.00018820238 5.649875e-06
000060 de 98 8b 36 88 aa fd 39 1d dd c0 39 5b ed ec 37
       4.160319e-06 0.00048382976 0.00036785836 2.824392e-05
000070 30 af f1 36 ce 30 86 38 58 7f 57 38 bf cd 6f 35
       7.202754e-06 6.3987085e-05 5.1378593e-05 8.933384e-07
000080 92 9e ce 31 29 1c ba 34 3f 3e 11 35 3c f7 13 32
       6.0134164e-09 3.466569e-07 5.410729e-07 8.612741e-09
000090 e5 f0 a0 32 1e 65 c6 35 1e df 0c 36 84 5e 63 33
       1.8735998e-08 1.4781579e-06 2.0991497e-06 5.2938518e-08
0000a0 f2 a4 26 33 5c 86 12 36 d9 f2 4a 36 0a c5 34 34
       3.8799904e-08 2.1833903e-06 3.0241702e-06 1.6835489e-07
0000b0 d9 cb 17 33 1e af 30 35 e1 c1 0b 35 3d 96 ed 31
       3.5342826e-08 6.581994e-07 5.2063666e-07 6.914688e-09
0000c0 e0 d3 7a 31 7a 18 bf 34 28 74 64 35 55 ce 68 32
       3.6500225e-09 3.559433e-07 8.510565e-07 1.3551092e-08
0000d0 45 94 e4 32 10 ac 34 36 4f f2 ca 35 13 03 ca 33
       2.6610119e-08 2.6922244e-06 1.5120694e-06 9.406917e-08
0000e0 de 42 95 33 ea 39 e7 36 1e fb cb 36 77 d8 03 35
       6.950516e-08 6.8910786e-06 6.0791053e-06 4.91163e-07
0000f0 0a cc b8 32 48 d2 de 34 a9 c9 e2 34 79 91 c0 31
       2.1513205e-08 4.1503722e-07 4.2242507e-07 5.6044738e-09
