model/u4_v2/checkpoint_1_0.9812.pth.tar (torch, 3543 bytes, 3 tensors)

fc0.weight f4 [4, 16]
4.753436 0.007952197 -3.7430124 -2.3481705 -1.1738557 -4.4535975 2.1343026 -3.6922832
-2.2444358 -7.3396544 -5.3539305 -6.4240866 6.7484784 2.6498244 0.81537056 1.813734
6.6247888 5.160365 1.2850957 0.13360001 2.6111586 0.74101 5.663718 0.044059154
0.6447612 -4.614234 -0.0036906719 -2.813948 7.1407504 6.058239 5.5454254 5.074322
0.4952726 0.31042492 0.01049218 -0.2878806 -0.0393375 -0.23000081 0.1361811 -0.0106830755
0.31647518 -0.10161477 0.02305213 0.018108347 0.6690359 -0.3180556 -0.086009145 0.71911407
-0.8783561 -0.8312892 0.004943218 0.07443029 -0.24964769 0.2841152 -0.84113175 0.015208604
-0.1732997 0.96375406 0.36792475 0.57474685 -1.2910765 -0.8803929 -0.35492074 -0.7509079
00000000: 261c 9840 ef49 023c 848d 6fc0 6d48 16c0
00000010: e740 96bf df83 8ec0 6a98 0840 5e4e 6cc0
00000020: d6a4 0fc0 73de eac0 6653 abc0 1e92 cdc0
00000030: 89f3 d740 b996 2940 20bc 503f 7028 e83f
00000040: 45fe d340 b621 a540 047e a43f 71ce 083e
00000050: 391d 2740 d5b2 3d3f 2e3d b540 5f77 343d
00000060: 120f 253f cea7 93c0 33df 71bb b917 34c0
00000070: 0781 e440 18dd c140 2074 b140 d960 a240
00000080: 5f94 fd3e 04f0 9e3e 64e7 2b3c 1665 93be
00000090: 5c20 21bd 5585 6bbe 0f73 0b3e 1108 2fbc
000000a0: 0909 a23e 681b d0bd d2d7 bc3c f557 943c
000000b0: f045 2b3f 2fd8 a2be 9025 b0bd dc17 383f
000000c0: f2db 60bf 5ecf 54bf b8fa a13b e86e 983d
000000d0: a5a3 7fbe 8c77 913e 6954 57bf 822d 793c
000000e0: 7a75 31be 96b8 763f a260 bc3e 9c22 133f
000000f0: ff41 a5bf 6e61 61bf 2cb8 b5be 803b 40bf

exp_avg f4 [4, 16]
-0.00055426813 0.00029903874 0.0048345933 0.0007694677 0.00031136323 0.0087830275 -0.0012243947 0.0017986917
0.0011948334 0.024216032 0.016470347 0.004542581 -0.002306694 -0.001951753 -0.00061906845 -0.00029412025
-0.0010695487 -0.0043381546 -0.00013028392 0.00046734812 -0.00035838623 0.0012786638 -0.011809555 0.00075987255
0.00046354873 0.016260235 0.004420527 0.0021563396 -0.0032972866 -0.008139323 -0.00622911 -0.0008466938
6.6113685e-06 3.7960835e-05 3.9023653e-05 5.088207e-06 1.8580657e-07 -2.6135647e-05 9.0686575e-05 1.5045791e-05
1.6379778e-05 -6.35423e-05 1.54062e-05 9.724988e-06 4.134389e-05 5.745727e-05 2.1764554e-05 4.774524e-06
-4.0798036e-06 -7.779921e-05 -0.00013080484 -2.9855584e-05 -8.0779555e-06 -0.00012057607 -0.00018996163 -3.082475e-05
-4.431822e-05 -0.00013287018 -0.00018912613 -2.2830469e-05 -3.8531318e-05 -0.0001393583 -8.956654e-05 -2.901254e-06
00000000: 4e4c 11ba 4dc8 9c39 826b 9e3b 1ab6 493a
00000010: 773e a339 b0e6 0f3c de7b a0ba 14c2 eb3a
00000020: f59b 9c3a b360 c63c d2ec 863c eed9 943b
00000030: e72b 17bb f7d1 ffba fb48 22ba 2734 9ab9
00000040: 1930 8cba 1427 8ebb d39c 08b9 6706 f539
00000050: c9e5 bbb9 d698 a73a dd7c 41bc 2f32 473a
00000060: 7508 f339 2f34 853c 11da 903b 6051 0d3b
00000070: 4a17 58bb cc5a 05bc 901d ccbb a9f4 5dba
00000080: 39d7 dd36 2338 1f38 54ad 2338 5ebb aa36
00000090: 1f82 4734 e03d dbb7 fc2e be38 2e6d 7c37
000000a0: 4e67 8937 0342 85b8 903c 8137 8128 2337
000000b0: aa68 2d38 46fe 7038 0693 b637 d934 a036
000000c0: 3fe5 88b6 2228 a3b8 a828 09b9 6172 fab7
000000d0: 8e86 07b7 c9dd fcb8 7030 47b9 d349 01b8
000000e0: 54e2 39b8 1153 0bb9 2950 46b9 0f84 bfb7
000000f0: b09c 21b8 b520 12b9 acd5 bbb8 2ab3 42b6

exp_avg_sq f4 [4, 16]
7.269519e-07 2.4832525e-05 3.8089067e-05 8.5586095e-07 1.5843655e-06 0.00011817657 0.00014194044 4.3314794e-06
3.034143e-06 0.00034197138 0.00026426406 1.9782445e-05 5.0488056e-06 4.74273e-05 3.6462003e-05 5.7761275e-07
1.1544879e-06 3.375847e-05 3.0973097e-05 7.902974e-07 1.6781044e-06 8.767989e-05 0.00022674832 3.8058467e-06
2.9598418e-06 0.00020532434 0.00017912878 1.277262e-05 7.811832e-06 8.0656726e-05 5.195764e-05 7.9308154e-07
4.3012538e-10 3.7486632e-08 7.247646e-08 1.849543e-09 3.2224576e-09 1.9696294e-07 1.9505083e-07 1.1447065e-08
9.344401e-09 4.0238393e-07 4.4692595e-07 3.452334e-08 3.506822e-09 5.768155e-08 4.59848e-08 5.904616e-10
2.9334546e-09 2.0958743e-07 4.5804683e-07 7.61099e-09 1.15612195e-08 1.2691743e-06 1.2709419e-06 3.9320184e-08
3.2590542e-08 2.6861896e-06 2.7628284e-06 1.6204672e-07 1.992467e-08 3.7580241e-07 3.2394377e-07 4.1556607e-09
00000000: c123 4335 714f d037 d3c1 1f38 51be 6535
00000010: 62a6 d435 90d5 f738 d9d5 1439 2057 9136
00000020: 2e9e 4b36 9f4a b339 ec8c 8a39 7af2 a537
00000030: e968 a936 adec 4638 c7ee 1838 3f0d 1b35
00000040: e7f3 9a35 e297 0d38 1ce9 0138 d324 5435
00000050: 3a3b e135 c8e0 b738 4ac3 6d39 f367 7f36
00000060: b2a1 4636 554c 5739 84d4 3b39 fc49 5637
00000070: 900f 0337 4026 a938 17ed 5938 26e4 5435
00000080: c476 ec2f fd00 2133 5ba4 9b33 0233 fe30
00000090: 1372 5d31 c37c 5334 2a6f 5134 b9a8 4432
000000a0: 1c89 2032 3a07 d834 09f1 ef34 d046 1433
000000b0: aafc 7031 89bd 7733 d380 4533 0b4e 2230
000000c0: e195 4931 f40a 6134 7ae9 f534 7dc1 0232
000000d0: c89e 4632 7f58 aa35 3b95 aa35 00e1 2833
000000e0: aef9 0b33 6344 3436 0869 3936 10ff 2d34
000000f0: d026 ab32 e4c1 c934 7eea ad34 94c9 8e31
