model/u4_v2/checkpoint_0_0.9426.pth.tar (torch, 3543 bytes, 3 tensors)

fc0.weight f4 [4, 16]
00000000: a60a 7e40 e1f8 5c40 420e b63f f4f4 803f
00000010: 7b22 e73f 4a51 703f 38de 6f40 b4a0 1a3f
00000020: 78ad 5c3f 2a43 4cc0 174b 4f3b 13b7 01c0
00000030: 4ca1 8540 170c 8540 b4ca 6a40 6047 4640
00000040: 907e 0740 9eca caba c977 fabf ad4a 7bbf
00000050: 28df abbe 9cbf 06c0 0de3 9d3f 4544 ecbf
00000060: f378 90bf 42c0 76c0 81d6 32c0 d4ae 4ec0
00000070: cb68 5040 9698 b83f 14cf c33e ea6d 333f
00000080: 736a 323e 14f8 553d 9f50 203e db8f dd3d
00000090: a3a6 6abc f01f 8e3d 770a 203f bb5b b3bb
000000a0: 7775 a73e b217 b5be 6430 113e c0c0 4ebe
000000b0: ae56 073f 6f0d e03e 375e 253e 1f70 d23e
000000c0: 5718 f2be 2794 0cbe c8b1 37be f87e 9a3c
000000d0: 6a5b aeba 8d56 c9bd d652 2cbe d78d 27bb
000000e0: 6184 d93c 4883 173a 362a 6c3d bc3d b4be
000000f0: a462 a13e 6303 383e 41bb f03d 40bc 86bc
3.9694 3.4526904 1.4223101 1.0074754 1.8057398 0.9387404 3.7479382 0.60401464
0.8620219 -3.1915994 0.003163045 -2.026799 4.1759396 4.157726 3.668622 3.0981064
2.1170998 -0.0015471762 -1.9567806 -0.9816082 -0.33568692 -2.105445 1.2334915 -1.8458334
-1.1286911 -3.8554845 -2.7943423 -3.2294207 3.256396 1.4421566 0.38243926 0.7008959
0.1742342 0.05223854 0.15655755 0.10818454 -0.014321956 0.06939685 0.6251597 -0.0054735816
0.32706806 -0.3536964 0.14178616 -0.20190716 0.5286664 0.4376025 0.16149221 0.41101167
-0.47284195 -0.1372839 -0.17938912 0.018859372 -0.001330239 -0.098309614 -0.16828474 -0.002556672
0.026552381 0.00057797553 0.057657443 -0.3520335 0.3152057 0.17970042 0.11754466 -0.016447186

exp_avg f4 [4, 16]
00000000: 6566 a5ba 060d e0bb 89bb 66bb 4416 3439
00000010: 04bc 73ba 7c2d 8dbb fbb7 9abc 4fc9 cfb9
00000020: d4ed 4cba 2397 2b3c 6e0f 83bb a06b 7d3a
00000030: 4f67 7dbb 4e27 46bc 7d55 0cbc e282 58ba
00000040: 4aa1 59ba 7d07 f2ba 0e8c 193b 1182 1b3a
00000050: 42a7 6eb9 506c a23b 0fa8 f8bb 9af4 783a
00000060: 4ff5 da38 bf9f ad3c 3b9e 253c b2e8 763b
00000070: fca1 46bb cb5d a8bb 99a6 31bb 373a dbb9
00000080: 353d fe37 19a3 8f37 5215 adb8 e452 23b7
00000090: 66bf d8b6 8ef1 92b9 c94a fb38 9062 5cb8
000000a0: 1bcb 1fb7 5f48 58ba 8f2b 03ba 7794 3cb9
000000b0: 57b4 dc38 1919 1739 daa7 8e38 de9c 9e36
000000c0: e3b3 83b5 253a 90b7 05f3 97b7 70d6 5937
000000d0: 4a9f 42b6 4e12 ecb7 b4df b0b7 7601 8936
000000e0: feaf df35 3b2e 8736 82d2 c4b7 2d9d 1db7
000000f0: a2c8 d9b5 757b adb7 04b8 cfb7 7c23 96b6
-0.0012619017 -0.00683749 -0.0035206995 0.00017174432 -0.0009297731 -0.0043084007 -0.018886557 -0.00039632103
-0.00078174216 0.0104730455 -0.003999642 0.00096672215 -0.0038666313 -0.012094332 -0.008565304 -0.0008259249
-0.0008301927 -0.0018465366 0.0023429426 0.0005932162 -0.00022759757 0.0049567595 -0.0075883935 0.00094968977
0.00010440742 0.021194337 0.010108526 0.0037675318 -0.0030308953 -0.005138134 -0.0027107357 -0.00041814308
3.0307661e-05 1.7122877e-05 -8.253254e-05 -9.734857e-06 -6.4595833e-06 -0.00028027262 0.000119825425 -5.254388e-05
-9.524428e-06 -0.000825053 -0.0005003744 -0.00017984385 0.000105240084 0.00014409832 6.8023524e-05 4.7270287e-06
-9.812615e-07 -1.7193213e-05 -1.8113768e-05 1.29841355e-05 -2.9000971e-06 -2.8141916e-05 -2.1085005e-05 4.0830882e-06
1.6666015e-06 4.0286955e-06 -2.3463046e-05 -9.394525e-06 -1.6226152e-06 -2.0680696e-05 -2.4762012e-05 -4.4744793e-06

exp_avg_sq f4 [4, 16]
00000000: 3a28 2735 3746 7c37 d975 5737 673f c434
00000010: 1260 4835 d993 0738 67c9 e738 52e3 d335
00000020: de6e b535 dafb c738 b4fd 8a38 06f0 b136
00000030: a993 9536 376c 2e38 a907 cf37 de69 dc34
00000040: 5c00 e234 b67e 5d37 9955 9f37 a4e4 e834
00000050: a246 6635 ca75 7738 6005 9838 c43c 1636
00000060: c680 d435 d1ef 3a39 faea 1039 06d8 2d37
00000070: a963 4136 c361 cd37 f20d a237 f679 b734
00000080: e476 e331 35de 9834 db52 a134 2392 b531
00000090: d013 9932 d328 8035 ad3e dd35 41fc 2433
000000a0: c1c1 e032 b4f1 9435 6a00 f435 9a4e e233
000000b0: ff1a 1033 6c57 0c35 cb61 e134 fbfa d131
000000c0: 7750 fe31 03f8 4135 da3a ec35 dfe3 f032
000000d0: 5734 6533 51ba ba36 245b 4d36 e9e7 4c34
000000e0: ab9b 1734 5c64 7137 4a73 5337 8423 8835
000000f0: 272f 3f33 6c6a 6035 ab8a 6635 9d91 4032
6.2270885e-07 1.5036719e-05 1.2842437e-05 3.6553976e-07 7.4645607e-07 3.2324202e-05 0.000110524525 1.5786884e-06
1.3517817e-06 9.5359705e-05 6.627609e-05 5.3029535e-06 4.457736e-06 4.1585616e-05 2.467989e-05 4.1055222e-07
4.2096042e-07 1.3202129e-05 1.8994137e-05 4.3379725e-07 8.578446e-07 5.899909e-05 7.248926e-05 2.2387112e-06
1.5832709e-06 0.00017827681 0.00013820446 1.03619e-05 2.881725e-06 2.4483428e-05 1.9318399e-05 3.4175144e-07
6.620086e-09 2.8473883e-07 3.0048872e-07 5.284407e-09 1.7820554e-08 9.548625e-07 1.6484024e-06 3.841365e-08
2.6165141e-08 1.1097204e-06 1.8179537e-06 1.05382426e-07 3.3552165e-08 5.228128e-07 4.198067e-07 6.1112337e-09
7.4015207e-09 7.225901e-07 1.7600498e-06 2.8043301e-08 5.336582e-08 5.564922e-06 3.0600431e-06 1.9083349e-07
1.4119603e-07 1.4388086e-05 1.2603423e-05 1.0143126e-06 4.4513538e-08 8.3601367e-07 8.5883465e-07 1.12089795e-08
