model/u2_p2_n2/checkpoint_0_0.9421.pth.tar (torch, 4734 bytes, 13 tensors)

fc0.weight f4 [2, 16]
000000 26 a4 6c bf 8d 4f 5b 3b 19 06 4b 3f de 19 86 3e
       -0.9243797 0.0033464164 0.7930618 0.2619161
000010 d9 49 55 bb 92 5a 30 3f 49 fd 54 bf 89 cc d6 3e
       -0.0032545237 0.688882 -0.8319898 0.41952923
000020 f5 ab fe bc 52 10 07 40 ea 6c c6 3f 19 26 cf 3f
       -0.031087855 2.110371 1.5501988 1.6183501
000030 a0 a8 b0 bf 8c de 34 bf 7b 94 4a bd 8f dd dd be
       -1.380146 -0.7065208 -0.04945801 -0.43333098
000040 04 0b 9c 3d 87 11 f1 3d 1d 74 8d be 61 d3 1c 3d
       0.076192886 0.11770921 -0.2762765 0.038287524
000050 b4 13 08 3c be b5 10 be b3 45 bb 3e 71 57 a5 be
       0.008305479 -0.14131829 0.36576614 -0.32293275
000060 70 7c 78 39 d8 d5 72 bf ff a8 ca be b0 1e c3 be
       0.0002369748 -0.9485755 -0.3958206 -0.3810935
000070 a2 77 4e 3e 4a c4 0d 3c da 78 1d 3c 3a 19 fb 3c
       0.20162824 0.008652756 0.009611333 0.030651677

fc1.weight f4 [2, 2]
000000 1b 87 8c 40 3a fc 95 40 f0 9d 6f c0 ee 2f 78 40
       4.3914924 4.6870394 -3.7440147 3.8779254

fc2.batch.x_running_rot f4 [2]
000000 aa e7 08 3f 89 d9 a8 40
       0.5347849 5.2765546

fc2.batch.ang_inc f4 [2]
000000 00 00 80 bf be 4b 1a be
       -1.0 -0.15067956

fc2.inv.x_running_rot f4 [2]
000000 00 00 00 00 00 00 00 00
       0.0 0.0

fc2.inv.x_l_0_5 f4 [2]
000000 00 00 00 00 00 00 00 00
       0.0 0.0

fc2.inv.x_g_0_5 f4 [2]
000000 00 00 00 00 00 00 00 00
       0.0 0.0

exp_avg f4 [2, 16]
000000 13 57 34 38 fd 50 80 ba 1a c3 5a bb 20 0c 19 ba
       4.299644e-05 -0.0009789761 -0.003338045 -0.00058382936
000010 fc 33 77 b7 4f 8c 86 bb a6 78 31 bb 51 21 37 ba
       -1.4734451e-05 -0.0041060816 -0.0027079969 -0.00069858605
000020 c4 d9 3e ba 72 f3 3c bc 20 d3 02 bc 75 d6 01 bb
       -0.00072803744 -0.011532651 -0.007984906 -0.0019811664
000030 4d 6d 3d 39 05 fc 05 bb be cb f3 ba 1c ae 43 38
       0.00018065162 -0.0020444405 -0.0018600149 4.6653775e-05
000040 63 04 7c ba 62 e5 1d bb d0 29 a3 b9 df eb 91 39
       -0.0009613691 -0.0024093022 -0.00031120935 0.00027832293
000050 5f 60 bb ba 60 1a 3f bb be 46 ed bb 2f ac 71 b8
       -0.0014295689 -0.0029160008 -0.007241099 -5.7619236e-05
000060 42 0a 6f ba 48 df 11 3c 44 5f 86 3a 0d 1c cd b9
       -0.0009118655 0.008903332 0.001025178 -0.00039121546
000070 6f df b9 ba 4b 99 5d bb f4 a9 71 bb 7e d6 8f ba
       -0.0014180968 -0.0033813294 -0.0036874982 -0.0010973958

exp_avg_sq f4 [2, 16]
000000 36 69 b2 35 6f 36 0b 38 fb 6a ea 37 ee 84 6c 35
       1.3292654e-06 3.3190878e-05 2.794479e-05 8.811029e-07
000010 95 23 21 36 37 7f cb 38 e4 cf 1d 39 b2 87 65 36
       2.401158e-06 9.70349e-05 0.00015050132 3.4202644e-06
000020 61 ff 50 36 9f 68 29 39 68 cc 30 39 0f 46 66 37
       3.1143065e-06 0.0001615607 0.00016860815 1.372538e-05
000030 2e af 99 36 d9 51 59 38 b5 f9 47 38 00 3b a4 35
       4.580149e-06 5.181306e-05 4.7677855e-05 1.2236123e-06
000040 cf d3 c1 35 48 32 64 38 38 29 7d 38 fc 24 8c 35
       1.4441265e-06 5.4406264e-05 6.035829e-05 1.0441577e-06
000050 12 13 1e 36 6b ab 09 39 88 20 ca 39 80 d1 b2 36
       2.3554935e-06 0.00013129196 0.0003855268 5.3292024e-06
000060 5a 4c a6 36 80 33 8f 38 60 96 77 39 b8 d3 19 37
       4.956074e-06 6.828364e-05 0.00023611775 9.168805e-06
000070 f9 fd 12 37 5a 73 12 39 34 7a be 38 b7 39 bc 35
       8.761411e-06 0.00013966617 9.082668e-05 1.4023889e-06

exp_avg f4 [2, 2]
000000 a2 3b d2 bb a2 3b d2 bb bb de 7d 3f b7 de 7d bf
       -0.0064158 -0.0064158 0.99167985 -0.9916796

exp_avg_sq f4 [2, 2]
000000 b5 1b 25 37 b6 1b 25 37 f1 b6 db 3e f1 b6 db 3e
       9.841217e-06 9.841218e-06 0.4291301 0.4291301

exp_avg f4 [2]
000000 00 00 00 00 ce be ca 27
       0.0 5.6273134e-15

exp_avg_sq f4 [2]
000000 00 00 00 00 23 ee 92 39
       0.0 0.00028024716
