model/u2_p2_n2/checkpoint_1_0.9583.pth.tar (torch, 4734 bytes, 13 tensors)

fc0.weight f4 [2, 16]
00000000: cb18 84bf a058 ebbb 8b61 713f 7310 1b3e
00000010: c241 9c3b 7983 533f 605e bbbf b12f 3c3f
00000020: f321 32bc 0a0c 6040 b37c 0340 cd8f 2040
00000030: 2256 1dc0 7dc9 8abf a1b8 22be 7ccd 2dbf
00000040: 2428 fc3d 0937 f13b af28 08bf ccd8 b83b
00000050: 20ed 753b 638f b8be 60e3 333f 8f03 30bf
00000060: d5c4 a43b 6319 3dc0 6261 6dbf 17e8 b9bf
00000070: 666a 533f 950d 023e bbc0 093d a0a6 553e
-1.0320066 -0.007182196 0.94289464 0.15142994 0.004768581 0.82622486 -1.4638176 0.7351027
-0.010872352 3.5007348 2.054486 2.508777 -2.4583821 -1.0842739 -0.15890743 -0.6789167
0.12312344 0.007361297 -0.5318708 0.0056410786 0.003752537 -0.36046895 0.7026882 -0.6875543
0.005028347 -2.9546745 -0.9272672 -1.4523953 0.82584226 0.12700494 0.033631068 0.20864344

fc1.weight f4 [2, 2]
00000000: 920a 0741 20c5 0b41 0cdf e6c0 0c28 eb40
8.440081 8.735626 -7.2147274 7.3486385

fc2.batch.x_running_rot f4 [2]
00000000: 6af3 043f 3f9c eb40
0.5193392 7.362823

fc2.batch.ang_inc f4 [2]
00000000: 0000 80bf be4b 1abe
-1.0 -0.15067956

fc2.inv.x_running_rot f4 [2]
00000000: 0000 0000 0000 0000
0.0 0.0

fc2.inv.x_l_0_5 f4 [2]
00000000: 0000 0000 0000 0000
0.0 0.0

fc2.inv.x_g_0_5 f4 [2]
00000000: 0000 0000 0000 0000
0.0 0.0

exp_avg f4 [2, 16]
00000000: 57da 14b7 3bb4 07ba 44cc 08b9 0ddf c239
00000010: 3cd2 8d39 c319 7eba 0620 6d3b 1d00 2db9
00000020: ca9d 6db9 8c7b cbbb 7cad 65bb 7241 9dba
00000030: 96f4 5c3a 5fb2 9f3a 9f9c cb38 853b 1c39
00000040: ba2b 1139 7b5c d939 3f35 c9b9 b414 ebb9
00000050: a88e d838 71a1 c73a bb21 81bb 437e da38
00000060: 4f43 e3b8 717b c83b 3ea6 683b b588 d43a
00000070: 649c 87ba dbe7 d3ba 0df2 6f38 8de2 0138
-8.872324e-06 -0.0005176698 -0.00013046066 0.0003716875 0.00027050253 -0.000969317 0.0036182418 -0.00016498608
-0.00022660862 -0.0062097963 -0.0035046032 -0.0011997654 0.000842878 0.0012183896 9.708967e-05 0.00014899492
0.00013844567 0.0004145837 -0.0003837738 -0.00044838118 0.000103262544 0.0015230608 -0.0039407886 0.00010418568
-0.00010836741 0.006118231 0.0035499479 0.0016215058 -0.0010346291 -0.0016167121 5.7207468e-05 3.096699e-05

exp_avg_sq f4 [2, 16]
00000000: 71f2 f535 2bea 4838 db28 1c38 1304 8c35
00000010: 5979 7136 5747 fd38 7a67 6c39 5e8d 8a36
00000020: b74b 7936 f3f1 1839 06f3 5239 e996 8337
00000030: 7c1e bc36 670e a338 e81d 9038 654b ec35
00000040: 08b8 fa35 67d7 7a38 7a88 7438 f177 a035
00000050: 219e 6e36 6947 1339 b2b1 c739 b53f c736
00000060: e7ea b536 4c85 ac38 d99e 8039 6c4f 4f37
00000070: 4881 0e37 6dc6 0d39 7cb8 cc38 cd7f ed35
1.8324482e-06 4.79018e-05 3.7231348e-05 1.0431999e-06 3.5982432e-06 0.00012077268 0.00022545262 4.129178e-06
3.7147963e-06 0.00014585983 0.00020117694 1.568669e-05 5.6063855e-06 7.775128e-05 6.8720256e-05 1.7605313e-06
1.8680012e-06 5.9805254e-05 5.8301237e-05 1.1955836e-06 3.5556807e-06 0.00014045615 0.0003808863 5.9380786e-06
5.4215666e-06 8.2264276e-05 0.00024532413 1.2356653e-05 8.49396e-06 0.00013520727 9.761841e-05 1.7695071e-06

exp_avg f4 [2, 2]
00000000: 31f5 d1bb 31f5 d1bb 4d29 813f 4d29 81bf
-0.006407403 -0.006407403 1.0090729 -1.0090729

exp_avg_sq f4 [2, 2]
00000000: a3f0 a937 a4f0 a937 687e 323f 697e 323f
2.0258425e-05 2.0258427e-05 0.6972413 0.69724137

exp_avg f4 [2]
00000000: 0000 0000 8c52 360b
0.0 3.5114026e-32

exp_avg_sq f4 [2]
00000000: 0000 0000 73ba 4939
0.0 0.00019238312
