model/u2_p2_n2/checkpoint_2_0.9273.pth.tar (torch, 4228 bytes, 11 tensors)

fc0.weight f4 [2, 16]
-8.700086 -8.761644 -5.237932 -0.26762816 -4.684778 -4.2278132 -9.4945345 -0.018512454
-1.1071893 10.398345 -0.0010952718 6.087015 -9.4568405 -9.325923 -9.127172 -6.9248934
11.142318 11.087161 8.660688 3.4627597 4.736484 6.7899847 12.089291 1.9993237
2.9948337 -10.885886 3.0305037 -7.520975 11.406357 11.908748 11.742904 10.001032
00000000: 8d33 0bc1 b22f 0cc1 249d a7c0 8f06 89be
00000010: b4e9 95c0 3f4a 87c0 9de9 17c1 6ea7 97bc
00000020: 61b8 8dbf 9f5f 2641 398f 8fba d4c8 c240
00000030: 384f 17c1 fb36 15c1 e608 12c1 ba98 ddc0
00000040: ef46 3241 0365 3141 2e92 0a41 db9d 5d40
00000050: 4791 9740 8e47 d940 bc6d 4141 d7e9 ff3f
00000060: 5bab 3f40 972c 2ec1 c6f3 4140 d4ab f0c0
00000070: 7080 3641 3b8a 3e41 efe2 3b41 3a04 2041

fc1.weight f4 [2, 2]
11.8650875 -11.814417 11.970979 11.51903
00000000: 66d7 3d41 da07 3dc1 2189 3f41 f24d 3841

fc2.inv.x_running_rot f4 [2]
0.0 0.0
00000000: 0000 0000 0000 0000

fc2.inv.ang_inc f4 [2]
1.0 1.0
00000000: 0000 803f 0000 803f

fc2.batch.x_running_rot f4 [2]
0.32295835 0.67704165
00000000: cc5a a53e 9a52 2d3f

fc2.batch.x_l_0_5 f4 [2]
1.0 0.0
00000000: 0000 803f 0000 0000

fc2.batch.x_g_0_5 f4 [2]
0.0 1.0
00000000: 0000 0000 0000 803f

exp_avg f4 [2, 16]
0.00074231374 0.003047192 0.00087084045 -8.719018e-06 0.00050981424 0.0011903519 0.008618595 0.00040934017
0.0002315205 -0.005675008 0.00037029615 -0.00047986576 0.0017362313 0.0054209465 0.003886434 0.00044792157
-0.001132002 -0.0046125315 -0.0024506224 -0.00015474868 -0.0008083454 -0.0026826342 -0.01376417 -0.0008185612
-0.0005037439 0.006568327 -0.0023700334 0.00043747487 -0.002718191 -0.00859694 -0.0063020037 -0.0006749383
00000000: d597 423a 66b3 473b 1d49 643a e647 12b7
00000010: 0ea5 053a 9505 9c3a 0235 0d3c b59c d639
00000020: 50c4 7239 6bf5 b9bb 4f24 c239 7e96 fbb9
00000030: 4192 e33a 32a2 b13b 8bb3 7e3b 04d7 ea39
00000040: af5f 94ba b824 97bb 9f9a 20bb 0844 22b9
00000050: 24e7 53ba 22cf 2fbb 1d83 61bc b694 56ba
00000060: ae0d 04ba 1f3b d73b 9052 1bbb e25c e539
00000070: ad23 32bb 2eda 0cbc 0a81 cebb 58ee 30ba

exp_avg_sq f4 [2, 16]
4.522965e-07 6.9351395e-06 2.0462958e-06 1.4934307e-07 3.4996847e-07 3.7418333e-06 6.0383813e-05 3.8118316e-07
3.642607e-07 3.4822035e-05 4.2058577e-06 1.8637016e-06 2.6470143e-06 2.3830851e-05 1.3063526e-05 2.6058427e-07
5.916942e-07 1.0929322e-05 5.000403e-06 2.7027218e-07 5.185961e-07 7.5534476e-06 0.00010262827 8.107572e-07
6.939961e-07 3.5736524e-05 8.7598155e-06 2.2512513e-06 4.527513e-06 4.0066352e-05 2.0947287e-05 3.3529741e-07
00000000: 28d3 f234 65b4 e836 1853 0936 1c5b 2034
00000010: 4de3 bb34 351c 7b36 a044 7d38 6aa5 cc34
00000020: 9c8f c334 e00d 1238 0b20 8d36 4d24 fa35
00000030: 5ca3 3136 5de8 c737 6b2b 5b37 6ee6 8b34
00000040: ead4 1e35 155d 3737 22c9 a736 ed19 9134
00000050: a735 0b35 9f73 fd36 223a d738 cfa2 5935
00000060: 0d4b 3a35 cde3 1538 1ff7 1237 3414 1736
00000070: 0aeb 9736 eb0c 2838 f5b7 af37 ed02 b434

exp_avg f4 [2, 2]
-0.023286717 0.023286717 -0.023286717 -0.023286717
00000000: c9c3 bebc c9c3 be3c c9c3 bebc c9c3 bebc

exp_avg_sq f4 [2, 2]
0.00036994444 0.00036994444 0.00036994438 0.00036994438
00000000: 1af5 c139 1af5 c139 18f5 c139 18f5 c139
