model/u2_p2_n2/checkpoint_2_0.8349.pth.tar (torch, 4734 bytes, 13 tensors)

fc0.weight f4 [2, 16]
00000000: 8e49 03c1 f390 86c0 45a0 9bbd 7092 ff3b
00000010: 5072 cfbf 2fc5 b6bd e049 b3c0 c406 91bb
00000020: 2f30 01bc 1051 6540 acab 4fba 0ec0 0b40
00000030: bab1 11c1 ed82 c9c0 1d32 8fc0 1489 7ac0
00000040: ca4d 0e41 79ee 8b40 1fc1 103f 670c 38bc
00000050: 199e 4b3e cd82 a23a 7ba1 b540 b465 7c3c
00000060: bf14 123d fbe4 3fc0 18d9 8d3a 6955 cebf
00000070: 902b 2141 9735 d140 bef6 9140 fd96 7740
-8.205458 -4.205194 -0.07598928 0.007799439 -1.620676 -0.089243285 -5.602768 -0.0044258554
-0.007885023 3.5830727 -0.00079220044 2.183597 -9.10589 -6.297232 -4.4748673 -3.9146166
8.893991 4.3728604 0.5654468 -0.011233426 0.19884528 0.0012398601 5.675962 0.015405107
0.035664316 -2.9983509 0.0010822145 -1.6119815 10.073135 6.5377917 4.56137 3.8685906

fc1.weight f4 [2, 2]
00000000: a88f 1c41 9f7e 1ec1 2182 44c0 e970 44c0
9.785072 -9.905913 -3.0704424 -3.0693915

fc2.batch.x_running_rot f4 [2]
00000000: 40c6 0d40 43d2 1f3f
2.2152252 0.6243021

fc2.batch.ang_inc f4 [2]
00000000: 200e 33be cf53 99bd
-0.17485857 -0.07486688

fc2.inv.x_running_rot f4 [2]
00000000: 0000 0000 0000 0000
0.0 0.0

fc2.inv.x_l_0_5 f4 [2]
00000000: 0000 0000 0000 0000
0.0 0.0

fc2.inv.x_g_0_5 f4 [2]
00000000: 0000 0000 0000 0000
0.0 0.0

exp_avg f4 [2, 16]
00000000: a489 713a 9f0f ad3b beaa 273b f9cf 8139
00000010: c7ec 5e3a bebe b03b 19ac 4f3c 5d0f 873a
00000020: 85ce 4c3a cc02 87b8 6703 073c 77ad d13a
00000030: ff4a 033b 43d4 f03b 2b96 b63b b85d 273a
00000040: 632a 70ba 3e3d abbb 3903 a5b9 7bb1 f838
00000050: d185 2a39 5c7d 9837 107f 5dbc 14ba 563a
00000060: fe55 2039 c4cd 563c 6160 14b9 f7b5 163b
00000070: 9a54 68bb e9a3 0dbc cc5b b5bb 5dc1 02ba
0.00092139305 0.005281403 0.0025583948 0.0002475975 0.00085039105 0.005393832 0.012675309 0.0010304261
0.0007812756 -6.4378226e-05 0.008240557 0.0015997131 0.0020033715 0.0073495223 0.0055721006 0.00063845096
-0.00091615896 -0.0052258065 -0.00031473654 0.0001185862 0.00016262314 1.8178187e-05 -0.013519064 0.000819118
0.00015290824 0.013110582 -0.00014150284 0.0022996643 -0.0035450817 -0.008645036 -0.0055346247 -0.000498792

exp_avg_sq f4 [2, 16]
00000000: e39a 8c35 2e71 1138 2dda 5438 c0a7 8e35
00000010: 89a3 3f36 cee5 1939 e995 6639 2461 db36
00000020: ee43 9e36 743e b639 a3e5 aa39 9893 cd37
00000030: 4bf2 ce36 3345 9538 a704 4638 fc8f 4b35
00000040: a314 7b35 2ec6 b838 8b01 4239 c483 4636
00000050: d6f7 bf36 5919 183a 8cbb e039 110f c837
00000060: b156 8a37 8599 ba3a a023 ad3a 2958 d138
00000070: 2e1c f136 3d31 f838 27ec d638 0e36 b535
1.0475891e-06 3.46761e-05 5.074793e-05 1.0628646e-06 2.8556408e-06 0.00014676826 0.00021990355 6.5380173e-06
4.716675e-06 0.00034760276 0.0003259602 2.4506633e-05 6.167485e-06 7.117763e-05 4.721121e-05 7.583292e-07
9.3534817e-07 8.8107176e-05 0.00018501857 2.9580997e-06 5.7210955e-06 0.0005802117 0.00042864343 2.3848874e-05
1.649125e-05 0.0014236426 0.001320947 9.982318e-05 7.1856402e-06 0.00011834733 0.00010248302 1.3501283e-06

exp_avg f4 [2, 2]
00000000: 86a6 f2be 86a6 f23e 5c61 3d3c 5b61 3d3c
-0.47392672 0.47392672 0.011558857 0.011558856

exp_avg_sq f4 [2, 2]
00000000: 946e 813e 946e 813e ef2c e639 f02c e639
0.25279677 0.25279677 0.00043902497 0.000439025

exp_avg f4 [2]
00000000: 0400 0000 c61e 0f00
6e-45 1.388572e-39

exp_avg_sq f4 [2]
00000000: b779 a738 2be2 3e38
7.985852e-05 4.5510165e-05
