model/u2_p2_n2/checkpoint_2_0.9624.pth.tar (torch, 4734 bytes, 13 tensors)

fc0.weight f4 [2, 16]
000000 be 12 9d 3f 93 80 52 3b 2d d3 35 bf f4 87 68 bc
       1.2271345 0.0032120093 -0.71025354 -0.01419257
000010 ad 99 2f 3c 9d 82 68 bf d1 0b da 3f d9 cb b3 bf
       0.0107177915 -0.908243 1.7034856 -1.4046584
000020 3a dd 95 3c 7f 78 ae c0 ef 07 15 c0 17 f7 4c c0
       0.018293966 -5.452209 -2.3286092 -3.2025812
000030 9a 72 61 40 02 49 8c 3f 1d 38 9d 3e f0 30 b2 3f
       3.5226197 1.095978 0.30706874 1.3921185
000040 bd 1f ef 3e bd b2 dd 3b 29 51 16 bf d2 47 e4 bc
       0.46703902 0.006765692 -0.5871759 -0.027866278
000050 80 15 2e 3b a4 93 47 bf 1a 7e a6 3f de 54 88 bf
       0.0026563108 -0.77959657 1.3007233 -1.06509
000060 03 8f 60 3c 3b bf bb c0 7e b7 da bf 47 1b 4c c0
       0.013705972 -5.8670936 -1.7087247 -3.1891649
000070 73 f6 1d 40 18 d8 9b 3f 3f 86 ed 3e de ed 52 3f
       2.468167 1.2175322 0.46391484 0.82394207

fc1.weight f4 [2, 2]
000000 28 97 3b 41 7f 3d 3f 41 8b c7 3c c1 69 83 3e 41
       11.724403 11.952514 -11.798717 11.907083

fc2.batch.x_running_rot f4 [2]
000000 20 13 03 3f f3 ad 16 41
       0.5120106 9.417468

fc2.batch.ang_inc f4 [2]
000000 00 00 80 bf 00 00 80 bf
       -1.0 -1.0

fc2.inv.x_running_rot f4 [2]
000000 00 00 00 00 00 00 00 00
       0.0 0.0

fc2.inv.x_l_0_5 f4 [2]
000000 00 00 00 00 00 00 00 00
       0.0 0.0

fc2.inv.x_g_0_5 f4 [2]
000000 00 00 00 00 00 00 00 00
       0.0 0.0

exp_avg f4 [2, 16]
000000 be d2 d7 b9 5a ca 92 ba 8c 0d e7 b8 ad bf 92 39
       -0.0004116501 -0.0011199221 -0.00011017462 0.000279901
000010 4b 61 64 b9 58 b1 81 ba 3e 39 90 bb d5 33 07 b8
       -0.00021780019 -0.0009894772 -0.004401355 -3.223478e-05
000020 d3 32 62 b9 f8 47 b4 3b 70 50 0b 3a c1 44 3e 3a
       -0.00021571973 0.0055017434 0.00053144153 0.000725817
000030 37 98 4e ba d4 99 e0 ba 1c 70 c7 ba 2b b7 8b b9
       -0.0007880958 -0.0017135688 -0.0015215906 -0.00026648617
000040 d1 c3 42 39 82 d8 91 3a 5b 57 b7 3a e5 96 bd 39
       0.00018574229 0.0011127146 0.0013987826 0.00036161314
000050 b9 e9 0d 39 58 5a 24 3b 82 66 e6 b9 7a 37 8e b8
       0.00013533876 0.0025078263 -0.00043945393 -6.781421e-05
000060 5b 2e bd b8 a0 ff fb 3b db 76 99 3b 14 96 ba 3a
       -9.020857e-05 0.007690385 0.004683358 0.0014235401
000070 03 e3 10 ba e8 9e 31 3a 3c 23 a4 3a b5 15 20 39
       -0.00055269914 0.0006775693 0.0012522708 0.00015266876

exp_avg_sq f4 [2, 16]
000000 00 e1 ed 35 90 85 54 38 a5 52 34 38 09 10 a4 35
       1.772336e-06 5.066913e-05 4.2992313e-05 1.2223619e-06
000010 c0 4a 83 36 87 2b f8 38 c7 10 87 39 70 8e b3 36
       3.9128063e-06 0.00011833669 0.00025761707 5.3511976e-06
000020 ea cb ab 36 c4 79 e0 38 a3 a7 53 39 08 0f 73 37
       5.119936e-06 0.00010703833 0.00020184978 1.4487428e-05
000030 b8 de ca 36 3b 33 b7 38 68 44 9e 38 7a 58 e5 35
       6.045997e-06 8.7356624e-05 7.546769e-05 1.708758e-06
000040 cd 39 fd 35 1a a8 7a 38 6c 2c 50 38 4e bb 96 35
       1.8866791e-06 5.97612e-05 4.9632436e-05 1.1230384e-06
000050 10 3f 7f 36 df 30 0d 39 5c ea a3 39 32 f5 ab 36
       3.8034668e-06 0.00013465014 0.00031264394 5.1247416e-06
000060 c7 77 a4 36 68 f6 c8 38 9a ea 6a 39 6e 6e 73 37
       4.901525e-06 9.58264e-05 0.00022403375 1.450964e-05
000070 16 18 ec 36 31 a5 e6 38 1f af bc 38 6b 91 ef 35
       7.036152e-06 0.00010998024 8.9971574e-05 1.784921e-06

exp_avg f4 [2, 2]
000000 02 86 cf bb 02 86 cf bb 3e b3 87 3f 3e b3 87 bf
       -0.0063331136 -0.0063331136 1.0601575 -1.0601575

exp_avg_sq f4 [2, 2]
000000 dc 10 f4 37 db 10 f4 37 7d 3d 51 3f 7d 3d 51 3f
       2.9094917e-05 2.9094916e-05 0.8173445 0.8173445

exp_avg f4 [2]
000000 00 00 00 00 00 00 00 00
       0.0 0.0

exp_avg_sq f4 [2]
000000 00 00 00 00 00 00 00 00
       0.0 0.0
