model/u2_p2_n2/checkpoint_1_0.9776.pth.tar (torch, 4734 bytes, 13 tensors)

fc0.weight f4 [2, 16]
00000000: 2a0a 923f 500f 5bb9 df7b c4be 5195 3dbc
00000010: 1ea6 2e3c 01db 31bf 1400 913f 4044 6bbf
00000020: eb4d bc3b 5dc5 5dc0 9504 d4bf 8183 06c0
00000030: 098a 2140 da44 4d3f b0de 663e b4c9 983f
00000040: cb3d c93e 8add 4f3b a261 abbe 3694 28bb
00000050: d771 433c 68fc 1dbf 96f9 413f e103 18bf
00000060: 9a8e bd3b d55d 6fc0 e762 90bf 895c 04c0
00000070: d66b c13f 0b5f 703f 5952 bf3e a49c 0f3f
1.1409352 -0.00020891172 -0.38375756 -0.011571244 0.010659723 -0.694748 1.1328149 -0.91901016
0.0057465932 -3.465171 -1.6563898 -2.1017764 2.52405 0.80183184 0.22545886 1.1936555
0.39304957 0.003171774 -0.33472925 -0.0025723106 0.011928997 -0.61713266 0.7577146 -0.5938092
0.0057848217 -3.740102 -1.1280183 -2.068148 1.5111034 0.93895024 0.37367514 0.5609839

fc1.weight f4 [2, 2]
00000000: 9eba ff40 a683 0341 9647 02c1 7403 0441
7.9915304 8.219641 -8.142477 8.250843

fc2.batch.x_running_rot f4 [2]
00000000: 3430 063f a74f d640
0.524173 6.697223

fc2.batch.ang_inc f4 [2]
00000000: 0000 80bf 0000 80bf
-1.0 -1.0

fc2.inv.x_running_rot f4 [2]
00000000: 0000 0000 0000 0000
0.0 0.0

fc2.inv.x_l_0_5 f4 [2]
00000000: 0000 0000 0000 0000
0.0 0.0

fc2.inv.x_g_0_5 f4 [2]
00000000: 0000 0000 0000 0000
0.0 0.0

exp_avg f4 [2, 16]
00000000: 52b5 bab9 95d0 09bb e842 55ba 8038 8339
00000010: 004a 16ba 3226 18bb d35b fdbb 6b76 7239
00000020: d454 b5b9 1255 b53b 688e 01ba 7762 6239
00000030: e318 9fba 3087 5abb 3bb5 17bb dead 1bba
00000040: 6d58 c6b9 2509 caba 13a7 b239 afb5 7739
00000050: 63f4 efb9 4a8b c7ba 13f5 b5bb 10d5 fa39
00000060: 56f5 4e39 2359 cf3b 8f56 863a 2597 203a
00000070: a5a5 71ba b5d5 11bb 681b 09bb f700 1eba
-0.0003561178 -0.0021028866 -0.0008135275 0.00025028363 -0.0005733073 -0.0023216126 -0.0077318936 0.00023123033
-0.00034586212 0.005533823 -0.00049421797 0.0002158972 -0.0012138154 -0.0033344738 -0.0023148793 -0.0005938689
-0.00037831385 -0.0015414102 0.00034075286 0.00023623438 -0.00045767715 -0.0015224006 -0.0055528968 0.0004784246
0.00019737086 0.0063277646 0.0010249185 0.0006126038 -0.00092181034 -0.0022252623 -0.0020920876 -0.00060273655

exp_avg_sq f4 [2, 16]
00000000: a476 b735 579d 2238 84c9 1738 4b8d 9135
00000010: 78ff 4636 ef64 c838 1a23 5339 2694 9936
00000020: 0212 9536 b0d8 d638 8426 3039 bcb0 5037
00000030: 4caf a136 25e4 8b38 05d4 7038 85b7 c335
00000040: 7be8 d035 c95b 5738 434a 3e38 c052 8335
00000050: 3c95 4936 91b8 f438 01f2 9239 26e8 9736
00000060: d37c 8f36 6c84 b438 3ad2 4e39 c4ef 4f37
00000070: 74a2 d236 1908 cf38 5b19 a338 2c86 c935
1.3669091e-06 3.8770344e-05 3.618888e-05 1.0844464e-06 2.9653002e-06 9.5555435e-05 0.00020135604 4.577002e-06
4.4426424e-06 0.000102446764 0.00016799016 1.2438915e-05 4.818581e-06 6.670532e-05 5.7417918e-05 1.4582043e-06
1.5564868e-06 5.1345476e-05 4.536869e-05 9.784344e-07 3.00382e-06 0.00011669205 0.00028027597 4.5271763e-06
4.2762636e-06 8.607734e-05 0.00019724006 1.2393986e-05 6.2773997e-06 9.8720375e-05 7.7771685e-05 1.5014716e-06

exp_avg f4 [2, 2]
00000000: 720f dcbb 720f dcbb 5b9d 6a3f 5b9d 6abf
-0.0067157084 -0.0067157084 0.91646355 -0.91646355

exp_avg_sq f4 [2, 2]
00000000: 1ce2 bb37 1ce2 bb37 d836 1b3f d836 1b3f
2.2397428e-05 2.2397428e-05 0.6063056 0.6063056

exp_avg f4 [2]
00000000: 0000 0000 0000 0000
0.0 0.0

exp_avg_sq f4 [2]
00000000: 0000 0000 0000 0000
0.0 0.0
