model/u2_p2_n2/checkpoint_0_0.9741.pth.tar (torch, 4734 bytes, 13 tensors)

fc0.weight f4 [2, 16]
3.570103 2.0803788 0.42622557 -0.042051986 0.44737768 0.015014663 2.5334241 0.012007512
0.12742515 -1.4577264 0.005096325 -0.94317704 4.1738963 2.8358502 1.897216 1.2187746
3.1335301 1.4782045 0.06806024 -0.05073676 0.30571452 0.009968872 2.3946009 -0.009410599
0.021819327 -1.2287066 -0.00069706317 -0.93542063 3.8568938 2.7745988 1.7890794 1.2047756
00000000: 917c 6440 ed24 0540 3d3a da3e b43e 2cbd
00000010: b00e e53e 1000 763c 9f23 2240 28bb 443c
00000020: bd7b 023e c796 babf 13ff a63b 0d74 71bf
00000030: 8f90 8540 927e 3540 f9d7 f23f ce00 9c3f
00000040: c28b 4840 ce35 bd3f 2b63 8b3d 59d1 4fbd
00000050: 9d86 9c3e 7b54 233c 2441 1940 ea2e 1abc
00000060: 72be b23c 4246 9dbf 1ebb 36ba ba77 6fbf
00000070: 59d7 7640 0793 3140 8e00 e53f 1636 9a3f

fc1.weight f4 [2, 2]
-3.3938406 3.6376202 -4.6210647 -4.958635
00000000: af34 59c0 c5ce 6840 c3df 93c0 23ad 9ec0

fc2.batch.x_running_rot f4 [2]
2.1192203 0.62925035
00000000: 4ea1 0740 8d16 213f

fc2.batch.ang_inc f4 [2]
-0.17580886 -0.17038059
00000000: 3d07 34be 4078 2ebe

fc2.inv.x_running_rot f4 [2]
0.03418254 0.029837636
00000000: fe02 0c3d 0f6e f43c

fc2.inv.x_l_0_5 f4 [2]
1.0 1.0
00000000: 0000 803f 0000 803f

fc2.inv.x_g_0_5 f4 [2]
0.0 0.0
00000000: 0000 0000 0000 0000

exp_avg f4 [2, 16]
-0.0011908276 -0.0038190228 0.0019088463 0.00017268129 -0.00039675526 0.003562573 -0.010231634 0.000665586
0.0005472209 0.01810469 0.007756453 0.003343347 -0.0031445953 -0.007552707 -0.004653795 -0.000686729
-0.0005938958 -0.0030247637 -0.0012696604 -4.7992744e-05 -0.00016284053 -0.0014430967 -0.008603401 2.6683141e-05
-9.396581e-05 0.0047808895 -0.0014055421 0.0007304128 -0.0018028365 -0.005523461 -0.0039537763 -0.00048912613
00000000: 8b15 9cba 9248 7abb 4132 fa3a c811 3539
00000010: 9703 d0b9 0f7a 693b 95a2 27bc b87a 2e3a
00000020: 5f73 0f3a 4950 943c d829 fe3b 0e1c 5b3b
00000030: 8e15 4ebb b37c f7bb dd7e 98bb 9a05 34ba
00000040: acaf 1bba 1d3b 46bb bc6a a6ba d14b 49b8
00000050: 2cc0 2ab9 4a26 bdba 47f5 0cbc 9cd5 df37
00000060: 830f c5b8 02a9 9c3b 2b3a b8ba 2c79 3f3a
00000070: 284d ecba 26fe b4bb ae8e 81bb b338 00ba

exp_avg_sq f4 [2, 16]
3.4814315e-07 2.756175e-05 5.077637e-05 7.76482e-07 1.6067152e-06 0.00015722812 0.0001449601 6.203482e-06
4.799711e-06 0.00035502357 0.0003466663 2.6067304e-05 2.2795637e-06 4.122502e-05 3.4105957e-05 4.4958549e-07
3.8665397e-07 2.046024e-05 4.0946274e-05 8.215957e-07 1.4751913e-06 0.000113201975 0.00012423935 4.626639e-06
3.990645e-06 0.0002659151 0.0002551996 1.874023e-05 2.6090959e-06 3.6497127e-05 2.7163036e-05 4.1632504e-07
00000000: 6ee8 ba34 6834 e737 b6f8 5438 706f 5035
00000010: 50a6 d735 9add 2439 6e00 1839 8127 d036
00000020: 340d a136 7522 ba39 c3c0 b539 1cab da37
00000030: 9bfa 1836 07e9 2c38 fe0c 0f38 8f5e f134
00000040: 5195 cf34 08a2 ab37 babd 2b38 a08b 5c35
00000050: 30ff c535 d966 ed38 3f46 0239 873e 9b36
00000060: 61e7 8536 856a 8b39 4fcc 8539 5634 9d37
00000070: ed17 2f36 7e14 1938 2ddc e337 4783 df34

exp_avg f4 [2, 2]
0.26449516 -0.26449516 0.014635373 0.014635372
00000000: e96b 873e e96b 87be 34c9 6f3c 33c9 6f3c

exp_avg_sq f4 [2, 2]
0.11259691 0.1125969 4.3463122e-05 4.3463126e-05
00000000: 3599 e63d 3499 e63d 2c4c 3638 2d4c 3638

exp_avg f4 [2]
6.384005e-15 8.953353e-16
00000000: 0e02 e627 0b08 8126

exp_avg_sq f4 [2]
0.0005360336 6.0459315e-06
00000000: 9b84 0c3a 28de ca36
