model/u2_p2_n2/checkpoint_1_0.9624.pth.tar (torch, 4734 bytes, 13 tensors)

fc0.weight f4 [2, 16]
000000 30 54 b3 c0 3f 3f 20 c0 73 76 20 bd d0 87 3f 3c
       -5.604027 -2.5038602 -0.039175462 0.011690095
000010 36 5f 80 bf 31 fd 11 be fa ef 62 c0 a4 6b 31 b9
       -1.0029056 -0.14256741 -3.545897 -0.00016920135
000020 ad 46 fd bb 66 1a 0a 40 a0 9b 38 b8 c5 20 b3 3f
       -0.0077293725 2.1578612 -4.4013956e-05 1.3994375
000030 d9 bb c2 c0 7f 58 82 c0 0e f7 36 c0 ce 81 26 c0
       -6.0854306 -4.0733027 -2.858829 -2.6016726
000040 18 fb c2 40 c6 28 45 40 2b 0c c5 3e 85 7d bf 3b
       6.093151 3.0806136 0.38485846 0.0058438205
000050 31 2c 92 3d 3d f9 de ba 6a 23 78 40 fa b7 74 bb
       0.07137335 -0.0017011535 3.8771615 -0.0037341104
000060 da 81 2c 3c 11 62 0a c0 e5 08 74 bb b9 92 8d bf
       0.010529006 -2.1622355 -0.0037236747 -1.1060401
000070 38 0e d5 40 01 51 8d 40 a8 cc 4b 40 f1 e0 2f 40
       6.6579857 4.416138 3.1843662 2.7481043

fc1.weight f4 [2, 2]
000000 26 70 dd 40 16 4e e1 c0 54 9b bd bf e6 78 bd bf
       6.91994 -7.040782 -1.4813027 -1.480252

fc2.batch.x_running_rot f4 [2]
000000 b8 4e 0c 40 c0 76 1f 3f
       2.1923046 0.62290573

fc2.batch.ang_inc f4 [2]
000000 20 0e 33 be cf 53 99 bd
       -0.17485857 -0.07486688

fc2.inv.x_running_rot f4 [2]
000000 00 00 00 00 00 00 00 00
       0.0 0.0

fc2.inv.x_l_0_5 f4 [2]
000000 00 00 00 00 00 00 00 00
       0.0 0.0

fc2.inv.x_g_0_5 f4 [2]
000000 00 00 00 00 00 00 00 00
       0.0 0.0

exp_avg f4 [2, 16]
000000 74 08 24 3a 3b 8a 20 3b 6a d2 94 3a 8c 34 b0 39
       0.0006257363 0.0024496454 0.0011354212 0.00033608486
000010 5a f4 3b 39 74 30 29 ba 7e 8b 41 3c ea fd 08 b9
       0.00017924738 -0.00064540585 0.011813043 -0.00013064561
000020 aa 40 9f 38 fd ba 39 bc f8 b9 03 bb c6 63 2f bb
       7.5937554e-05 -0.011336085 -0.002009986 -0.002676235
000030 a6 d1 35 3b 06 d6 f8 3b c3 66 8a 3b c6 77 58 39
       0.0027743368 0.007593873 0.004223676 0.00020643984
000040 9b 31 72 ba 8a f9 76 bb fa 36 ea b9 66 18 3f b9
       -0.0009238959 -0.0037685358 -0.0004467292 -0.00018224269
000050 c1 e9 8f 38 a7 2f 7a 3a b8 10 37 bc 5f d2 c3 39
       6.8623114e-05 0.0009543844 -0.01117342 0.00037350037
000060 e1 7f c9 37 94 21 41 3c 8c 71 04 3b b3 43 f3 3a
       2.4020615e-05 0.011787791 0.002020928 0.0018559605
000070 4d bb 47 bb b5 59 e5 bb ca 2e 8a bb f3 bc bb b9
       -0.003047663 -0.0069992193 -0.0042170035 -0.00035808198

exp_avg_sq f4 [2, 16]
000000 53 d6 48 35 92 6d f1 37 aa b7 5f 38 5d b9 88 35
       7.481769e-07 2.8780461e-05 5.3338394e-05 1.0186737e-06
000010 53 ec 14 36 2f 9a 18 39 70 14 3f 39 5c 6f c6 36
       2.2191277e-06 0.00014553287 0.00018222793 5.9138238e-06
000020 cd 54 92 36 26 14 b8 39 f5 06 af 39 dc cb c6 37
       4.361011e-06 0.00035110227 0.00033383784 2.3698369e-05
000030 60 28 93 36 84 c2 71 38 fd bb 27 38 ea a9 1c 35
       4.3856417e-06 5.7640034e-05 3.999098e-05 5.8361786e-07
000040 d8 cb 38 35 4e 1f 7e 38 09 40 09 39 8f 4c 0a 36
       6.8841973e-07 6.0587474e-05 0.00013089193 2.0608165e-06
000050 3e 47 83 36 5b 54 d2 39 9b c2 9e 39 b8 17 8d 37
       3.912398e-06 0.0004011717 0.000302811 1.6819555e-05
000060 e6 59 45 37 11 91 80 3a 39 e9 6d 3a 9e 0f 91 38
       1.1763046e-05 0.0009808858 0.00090755854 6.917048e-05
000070 53 fb af 36 2d 0d b2 38 87 5c 96 38 ca 38 79 35
       5.2446644e-06 8.4901556e-05 7.169792e-05 9.284237e-07

exp_avg f4 [2, 2]
000000 b9 66 c6 be b9 66 c6 3e 7e f9 62 3c 7e f9 62 3c
       -0.38750246 0.38750246 0.013853429 0.013853429

exp_avg_sq f4 [2, 2]
000000 02 60 51 3e 02 60 51 3e 77 81 12 3a 76 81 12 3a
       0.2044678 0.2044678 0.000558875 0.0005588749

exp_avg f4 [2]
000000 6c fd 41 0c e9 82 86 1b
       1.494444e-31 2.225304e-22

exp_avg_sq f4 [2]
000000 c9 f6 f3 38 02 08 8b 38
       0.0001163311 6.629528e-05
