model/u2_p2_n2/checkpoint_2_0.9685.pth.tar (torch, 4734 bytes, 13 tensors)

fc0.weight f4 [2, 16]
0	0x41265a0a	10.396982
1	0x412bb31e	10.73123
2	0x4105df37	8.366996
3	0x407f727a	3.991362
4	0x40aebcec	5.4605618
5	0x40e4e4c0	7.1529236
6	0x4135f2c8	11.371773
7	0x40354b3b	2.8327167
8	0x405e0841	3.4692538
9	0xc141e9db	-12.119594
10	0x4083a292	4.113595
11	0xc0f66f9b	-7.7011237
12	0x4132669f	11.150054
13	0x413a25b3	11.634204
14	0x41310d2c	11.065716
15	0x4118c075	9.546987
16	0xc12fb871	-10.98253
17	0xc13a5937	-11.646781
18	0xc0e4f6d9	-7.155133
19	0xbdc673ee	-0.096900806
20	0xc0bdec7f	-5.935119
21	0xc0da5e00	-6.8239746
22	0xc1440ae1	-12.252656
23	0xbddc101b	-0.107452594
24	0xbfc327db	-1.5246538
25	0x4138e999	11.557031
26	0xbbde7329	-0.0067886305
27	0x40fbde70	7.870903
28	0xc13a8e2a	-11.659708
29	0xc13e3db1	-11.890061
30	0xc13cd9a6	-11.803137
31	0xc116c586	-9.4232235

fc1.weight f4 [2, 2]
0	0x414c649b	12.774562
1	0xc148fdc9	-12.561959
2	0xc14ba68d	-12.728162
3	0xc14cc40f	-12.797866

fc2.inv.x_running_rot f4 [2]
0	0x3f783fcb	0.9697234
1	0x3f783fc8	0.9697232

fc2.inv.ang_inc f4 [2]
0	0xbd8d8383	-0.069098495
1	0xbd868fda	-0.06570406

fc2.batch.x_running_rot f4 [2]
0	0x3e799fe5	0.24377401
1	0x3f419806	0.75622594

fc2.batch.x_l_0_5 f4 [2]
0	0x3f800000	1.0
1	0x00000000	0.0

fc2.batch.x_g_0_5 f4 [2]
0	0x00000000	0.0
1	0x3f800000	1.0

exp_avg f4 [2, 16]
0	0xba738b50	-0.00092904735
1	0xbb6b5b3c	-0.0035912534
2	0xbaa1a275	-0.0012331741
3	0x38a3ef8a	7.817063e-05
4	0xba157309	-0.00057010405
5	0xbacf078b	-0.0015795095
6	0xbc21978a	-0.00986279
7	0xb85d2c64	-5.2731848e-05
8	0x38a3625e	7.790768e-05
9	0x3be8e78b	0.00710768
10	0xb9cc7c03	-0.00039002308
11	0x3a743583	0.0009315835
12	0xbafa01cb	-0.0019074021
13	0xbbd692a8	-0.0065482445
14	0xbba791cc	-0.005113816
15	0xba22797f	-0.0006197914
16	0x3a481f7c	0.0007634086
17	0x3b4361ed	0.0029813007
18	0x3a3d823d	0.0007229185
19	0xb921e9b5	-0.00015441219
20	0x39d1a35d	0.00039985302
21	0x3a8aa96a	0.0010579054
22	0x3c04f416	0.008114835
23	0xb80b1a52	-3.3164695e-05
24	0xb95f9538	-0.00021322526
25	0xbbd6712b	-0.0065442524
26	0xb90d15c2	-0.00013454913
27	0xba8160e3	-0.0009870793
28	0x3ad0d1cb	0.0015931664
29	0x3bb004e9	0.005371679
30	0x3b879ffa	0.0041389437
31	0x3a013979	0.00049295236

exp_avg_sq f4 [2, 16]
0	0x35124b1d	5.449854e-07
1	0x372b1b16	1.0198701e-05
2	0x36ad3693	5.162155e-06
3	0x348fd549	2.679101e-07
4	0x3501e492	4.838886e-07
5	0x36e62431	6.8587474e-06
6	0x38c7fa39	9.535667e-05
7	0x354658c0	7.3889896e-07
8	0x353a9466	6.950635e-07
9	0x380043b0	3.0580617e-05
10	0x37102c3f	8.593371e-06
11	0x3605990a	1.9907625e-06
12	0x368f9f1d	4.2802553e-06
13	0x381cde16	3.7400132e-05
14	0x37a2a12d	1.9386958e-05
15	0x34ae8d73	3.2512943e-07
16	0x34ba7ace	3.4734552e-07
17	0x36b3f289	5.3628505e-06
18	0x35cf12ee	1.5428211e-06
19	0x340388ff	1.2250165e-07
20	0x348f34af	2.6674158e-07
21	0x3621c38b	2.410469e-06
22	0x3840e33f	4.5988007e-05
23	0x349b7adc	2.8960392e-07
24	0x34a10cab	2.9997804e-07
25	0x37f270ee	2.8901235e-05
26	0x3654bdaa	3.170086e-06
27	0x35c069ed	1.4335943e-06
28	0x36084320	2.030465e-06
29	0x3799e034	1.8343424e-05
30	0x372325c4	9.72435e-06
31	0x345009d5	1.9375086e-07

exp_avg f4 [2, 2]
0	0xbcb85052	-0.022499237
1	0x3cb85052	0.022499237
2	0x3cb84c2d	0.022497261
3	0x3cb84c2d	0.022497261

exp_avg_sq f4 [2, 2]
0	0x39a7d7de	0.00032013556
1	0x39a7d7de	0.00032013556
2	0x39a66fce	0.00031745288
3	0x39a66fce	0.00031745288

exp_avg f4 [2]
0	0x00000004	6e-45
1	0x00000004	6e-45

exp_avg_sq f4 [2]
0	0x38167d3c	3.587942e-05
1	0x38534b08	5.03762e-05
