model/u2_p2_n2/checkpoint_1_0.9721.pth.tar (torch, 4228 bytes, 11 tensors)

fc0.weight f4 [2, 16]
-5.648953 -5.5338717 -3.2216537 -0.19487143 -3.2118924 -2.6572912 -6.0716248 -0.102472246
-0.73816544 7.0924296 -0.0034911998 3.8578246 -6.088467 -5.9091725 -5.824241 -4.3107758
7.651168 7.5621405 6.039094 2.543118 3.1294127 4.593091 8.411543 1.561377
2.163294 -7.23119 1.985691 -5.1604943 7.812043 8.221722 8.089602 6.9314766
00000000: 39c4 b4c0 7a15 b1c0 932f 4ec0 608c 47be
00000010: a58f 4dc0 0f11 2ac0 c04a c2c0 f8dc d1bd
00000020: 69f8 3cbf 2ff5 e240 9dcc 64bb 99e6 7640
00000030: b9d4 c2c0 f117 bdc0 2f60 bac0 e0f1 89c0
00000040: 5ed6 f440 0efd f140 4240 c140 72c2 2240
00000050: 4c48 4840 9afa 9240 ae95 0641 34db c73f
00000060: 6973 0a40 e965 e7c0 1f2b fe3f c522 a5c0
00000070: 42fc f940 2c8c 0341 036f 0141 a8ce dd40

fc1.weight f4 [2, 2]
8.11461 -8.06394 8.220502 7.768552
00000000: 71d5 0141 e605 01c1 2d87 0341 fa97 f840

fc2.inv.x_running_rot f4 [2]
0.0 0.0
00000000: 0000 0000 0000 0000

fc2.inv.ang_inc f4 [2]
1.0 1.0
00000000: 0000 803f 0000 803f

fc2.batch.x_running_rot f4 [2]
0.25123873 0.7487613
00000000: 5da2 803e d2ae 3f3f

fc2.batch.x_l_0_5 f4 [2]
1.0 0.0
00000000: 0000 803f 0000 0000

fc2.batch.x_g_0_5 f4 [2]
0.0 1.0
00000000: 0000 0000 0000 803f

exp_avg f4 [2, 16]
0.0006816428 0.002941711 0.0010748 -0.00014647646 0.00022381608 0.0005486913 0.008635979 -1.736893e-06
1.8427729e-05 -0.0060696336 0.00017330893 -0.0009841131 0.001924181 0.005340954 0.0035396963 0.00029615973
-0.0009780142 -0.004369455 -0.0017862926 0.00016299135 -0.00044828662 -0.0016362878 -0.012035925 -2.769253e-05
-8.761398e-05 0.0071533597 -0.0013219517 0.0010842547 -0.0025059814 -0.0074250125 -0.005284123 -0.00049214583
00000000: 46b0 323a b9c9 403b 4ee0 8c3a 7a97 19b9
00000010: 2cb0 6a39 0dd6 0f3a ec7d 0d3c 301f e9b5
00000020: 3f95 9a37 c7e3 c6bb 43ba 3539 5bfd 80ba
00000030: cd34 fc3a 2b03 af3b 40fa 673b e345 9b39
00000040: b630 80ba a52d 8fbb 0922 eaba a8e8 2a39
00000050: 0308 ebb9 b578 d6ba 5432 45bc 414d e8b7
00000060: 66bd b7b8 bb66 ea3b 5745 adba 8d1d 8e3a
00000070: 643b 24bb 854d f3bb 7026 adbb 5903 01ba

exp_avg_sq f4 [2, 16]
3.914583e-07 6.0288403e-06 1.7919299e-06 1.2626771e-07 2.964719e-07 3.4976497e-06 5.1974308e-05 3.3313248e-07
3.0931045e-07 2.7441918e-05 3.4797085e-06 1.4689649e-06 2.2334998e-06 2.042084e-05 1.1422911e-05 2.2916855e-07
4.150127e-07 7.562791e-06 3.3618542e-06 2.1123357e-07 3.4895294e-07 4.6819605e-06 7.385642e-05 6.4694694e-07
5.5813246e-07 2.7587022e-05 5.2466976e-06 1.6994773e-06 3.4458437e-06 2.8826536e-05 1.4618839e-05 2.3401117e-07
00000000: 9e29 d234 584b ca36 3e82 f035 3494 0734
00000010: ca2a 9f34 2ab9 6a36 fdfe 5938 61d9 b234
00000020: 4e0f a634 1233 e637 f084 6936 4029 c535
00000030: 3ce3 1536 6c4d ab37 07a5 3f37 5f11 7634
00000040: e9ce de34 e1c3 fd36 379c 6136 71cf 6234
00000050: ba57 bb34 bc19 9d36 5de3 9a38 dba9 2d35
00000060: 92d2 1535 ae6a e737 ca0c b036 9819 e435
00000070: 253f 6736 84d0 f137 6f43 7537 8044 7b34

exp_avg f4 [2, 2]
-0.022947704 0.022947704 -0.022947704 -0.022947704
00000000: d3fc bbbc d3fc bb3c d3fc bbbc d3fc bbbc

exp_avg_sq f4 [2, 2]
0.0002876801 0.0002876801 0.0002876801 0.00028768007
00000000: c5d3 9639 c5d3 9639 c5d3 9639 c4d3 9639
