model/u2_p2_n2/checkpoint_2_0.9477.pth.tar (torch, 4734 bytes, 13 tensors)

fc0.weight f4 [2, 16]
0	0x3f64bc75	0.8935006
1	0x3a916cce	0.0011095048
2	0xbf961119	-1.1723968
3	0xbd6d2dc1	-0.057904962
4	0x3beb8e95	0.007188628
5	0xbf945140	-1.1587296
6	0x4001b430	2.0266228
7	0xbfc94e23	-1.572697
8	0x3c716270	0.014732942
9	0xc0c9a122	-6.3009195
10	0xc02a48d7	-2.6606958
11	0xc06cd883	-3.7007148
12	0x40442707	3.064882
13	0x3f551cc3	0.8324701
14	0x3e978d5c	0.29600036
15	0x3f4c8f43	0.799061
16	0x3e0a6975	0.13516791
17	0x38425ee8	4.6341593e-05
18	0xbf6689b1	-0.9005385
19	0xbca96a8b	-0.020680686
20	0x3a679a75	0.00088349666
21	0xbf2115df	-0.62924
22	0x3fa55ae4	1.2918363
23	0xbf9f9924	-1.246861
24	0x3c4945ad	0.012284678
25	0xc0c7df77	-6.2460284
26	0xbfbedfca	-1.4912045
27	0xc04321f7	-3.048948
28	0x402103d4	2.5158587
29	0x3f02886b	0.5098941
30	0x3e0abe34	0.13549119
31	0x3f2b1941	0.6683541

fc1.weight f4 [2, 2]
0	0xc14b46b7	-12.704764
1	0xc1481efe	-12.507566
2	0x413749a5	11.45548
3	0xc132d001	-11.175782

fc2.batch.x_running_rot f4 [2]
0	0x3f055782	0.5208665
1	0x40e0c685	7.0242333

fc2.batch.ang_inc f4 [2]
0	0xbdf2eddc	-0.11861774
1	0xbe1432b7	-0.14472471

fc2.inv.x_running_rot f4 [2]
0	0x00000000	0.0
1	0x00000000	0.0

fc2.inv.x_l_0_5 f4 [2]
0	0x00000000	0.0
1	0x00000000	0.0

fc2.inv.x_g_0_5 f4 [2]
0	0x00000000	0.0
1	0x00000000	0.0

exp_avg f4 [2, 16]
0	0xb8c228cb	-9.258239e-05
1	0x3a7fc326	0.00097565574
2	0x3ab23ab5	0.0013597818
3	0x3972ad56	0.00023143491
4	0xb97824c5	-0.00023664821
5	0x3b0b7b56	0.002128323
6	0xbadecba7	-0.0016997949
7	0x38d70bef	0.00010254222
8	0x38b14283	8.4524065e-05
9	0x3be24257	0.006904881
10	0x3b757fa3	0.003746011
11	0x3a7dc0b4	0.0009679899
12	0xba3199fd	-0.000677496
13	0x39b9cca9	0.00035438433
14	0x3a8ba496	0.0010653909
15	0x35aa4241	1.268527e-06
16	0xb9301fe6	-0.00016796551
17	0xb9b5a158	-0.0003464322
18	0xb8e0b5b6	-0.00010714999
19	0x3956e577	0.00020494113
20	0xb918a507	-0.00014557327
21	0xb5eb9932	-1.755345e-06
22	0xbba6991c	-0.00508417
23	0x391f2fae	0.00015181184
24	0x384c681e	4.8734357e-05
25	0x3bc264e0	0.0059324354
26	0x3a969695	0.0011488969
27	0x3a35b39b	0.00069313654
28	0xba811416	-0.0009847905
29	0xbb05722b	-0.002036224
30	0xba44a7d1	-0.0007501813
31	0xb803ec1a	-3.145272e-05

exp_avg_sq f4 [2, 16]
0	0x35fa898c	1.8666483e-06
1	0x387284f6	5.7821126e-05
2	0x3829bf8c	4.047113e-05
3	0x35875f51	1.0086025e-06
4	0x368397ad	3.9217616e-06
5	0x39031acb	0.00012503115
6	0x398e4ca5	0.00027141455
7	0x36a10ac2	4.7994263e-06
8	0x36904627	4.2997012e-06
9	0x38c22d5c	9.25909e-05
10	0x395accba	0.00020866367
11	0x377d0b5c	1.508262e-05
12	0x36bd1df0	5.636124e-06
13	0x38c52f5e	9.402515e-05
14	0x38ad1f3a	8.255099e-05
15	0x35f4207b	1.818887e-06
16	0x36021578	1.9384006e-06
17	0x387e9d34	6.0704726e-05
18	0x385076b4	4.9701615e-05
19	0x359d0672	1.1699287e-06
20	0x367c65c8	3.761017e-06
21	0x390f4f86	0.00013667168
22	0x39ad2505	0.00033024713
23	0x36b49594	5.381831e-06
24	0x36a25f6d	4.8390852e-06
25	0x38bc6f4c	8.985269e-05
26	0x397627b3	0.00023475177
27	0x3770bc8f	1.4349017e-05
28	0x36ea96e8	6.9913112e-06
29	0x38ede15f	0.00011343019
30	0x38c227cd	9.258054e-05
31	0x35f4ed15	1.8248417e-06

exp_avg f4 [2, 2]
0	0x3bca4152	0.0061723376
1	0x3bca4153	0.006172338
2	0xbf8eefb7	-1.1166905
3	0x3f8eefb6	1.1166904

exp_avg_sq f4 [2, 2]
0	0x37e408d9	2.7183838e-05
1	0x37e408da	2.718384e-05
2	0x3f5d6afe	0.8649138
3	0x3f5d6aff	0.8649139

exp_avg f4 [2]
0	0x00000004	6e-45
1	0x00000004	6e-45

exp_avg_sq f4 [2]
0	0x38088e60	3.2557524e-05
1	0x38ebe51f	0.0001124835
