tests/model/u4_p2/checkpoint_1_0.9436.pth.tar (torch, 3223 bytes, 6 tensors)

fc0.weight f4 [4, 16]
-5.6053886 1.951283 5.8244805 4.5011344 2.9028752 6.006342 -0.028864928 5.865863
5.63684 7.3250194 6.330181 6.4566474 -6.0398917 -1.6725101 0.24007657 -1.0977768
6.72124 6.851453 5.8501053 3.3595233 4.193718 4.8877954 6.903858 3.2209811
3.520223 -4.3002396 4.375903 -0.1943421 7.0564117 7.365353 6.968581 6.3424225
0.00025616318 -0.12911598 0.0017745534 -0.028868139 -0.07502437 0.000971728 -0.0016598852 0.026865646
-0.012009027 0.00035436684 0.08873932 -0.004235501 0.005314083 0.0038387983 0.001698073 0.0026413414
0.18650171 -0.0020068095 -0.0018484718 -0.0030118246 -7.0194947e-06 0.0654923 -0.04913788 5.4788543e-06
0.024685858 -0.0019000045 0.00029446284 -0.01882079 -0.009870717 -0.00012821384 -0.07043884 0.11379929
00000000: 585f b3c0 a4c3 f93f 2562 ba40 4b09 9040
00000010: b5c8 3940 f433 c040 2476 ecbc 26b5 bb40
00000020: fe60 b440 8f66 ea40 d890 ca40 db9c ce40
00000030: cb46 c1c0 d014 d6bf a2d6 753e f383 8cbf
00000040: 6614 d740 1a3f db40 1034 bb40 6e02 5740
00000050: f032 8640 d268 9c40 68ec dc40 8e24 4e40
00000060: 554b 6140 909b 89c0 6607 8c40 9e01 47be
00000070: 20ce e140 f9b0 eb40 9efe de40 20f5 ca40
00000080: a44d 8639 fb36 04be 2298 e83a e07c ecbc
00000090: 60a6 99bd 90bb 7e3a 8190 d9ba 5815 dc3c
000000a0: 83c1 44bc 50ca b939 f6bc b53d f5c9 8abb
000000b0: c221 ae3b 5994 7b3b e091 de3a 5b1a 2d3b
000000c0: 4efa 3e3e ad84 03bb 6c48 f2ba 0862 45bb
000000d0: 0089 ebb6 d420 863d cd44 49bd 00d7 b736
000000e0: ff39 ca3c 9209 f9ba 2262 9a39 0f2e 9abc
000000f0: cab8 21bc 2471 06b9 3d42 90bd 9a0f e93d

fc1.weight f4 [2, 4]
6.6440334 -6.4272294 5.8930326 6.4435906 -2.5273874 7.1036277 6.826312 7.252698
00000000: ec9b d440 ddab cdc0 b993 bc40 e531 ce40
00000010: b7c0 21c0 eb50 e340 2671 da40 1a16 e840

exp_avg f4 [4, 16]
0.0006504148 -8.4677755e-05 -0.002759562 -0.00023300413 -0.0001707404 -0.005129211 0.0018543827 -0.0015086696
-0.0013384033 -0.0149774505 -0.0097184675 -0.0032377082 0.0011568622 0.0016578314 0.0012126502 0.00034174294
-0.0014060616 -0.007033964 -0.005540956 -0.0007044578 -0.00131511 -0.008472854 -0.020406855 -0.0013232518
-0.0009423238 0.0022891525 -0.009100979 -0.0009728179 -0.0035782629 -0.012333356 -0.009944189 -0.0011966177
-2.7112666e-05 -0.00024222724 -0.00022065252 -1.4083705e-05 -6.397226e-05 -0.00046170616 -0.00054201816 -7.301334e-05
-6.7772984e-05 -0.00044869527 -0.00058037706 -0.00015741999 -4.661323e-05 -0.00028988058 -0.00026035492 -2.9355211e-05
2.2399697e-06 5.7809873e-05 7.228025e-05 5.3888098e-06 2.2958042e-05 0.0001693957 6.5211876e-05 1.3135544e-06
2.0000718e-05 0.0001309408 0.00015582627 6.605747e-05 1.280944e-05 7.086053e-05 6.0335038e-05 1.0066367e-05
00000000: 9980 2a3a 0695 b1b8 c5d9 34bb 9252 74b9
00000010: c708 33b9 f112 a8bb c20e f33a 8dbe c5ba
00000020: 5d6d afba fb63 75bc 353a 1fbc bb2f 54bb
00000030: dba1 973a 974b d93a caf1 9e3a f62b b339
00000040: 994b b8ba 2b7d e6bb e890 b5bb 5dab 38ba
00000050: c55f acba bad1 0abc 472c a7bc f670 adba
00000060: 4806 77ba 9b05 163b 461c 15bc b404 7fba
00000070: 4a81 6abb d811 4abc f4ec 22bc d4d7 9cba
00000080: 0270 e3b7 61fe 7db9 f65e 67b9 0d49 6cb7
00000090: d828 86b8 2711 f2b9 3916 0eba bd1e 99b8
000000a0: 5821 8eb8 dc3e ebb9 7224 18ba 1b11 25b9
000000b0: 9382 43b8 1dfb 97b9 3f80 88b9 d63f f6b7
000000c0: 6352 1636 e178 7238 2a95 9738 86d1 b436
000000d0: 0596 c037 d09f 3139 5cc2 8838 634d b035
000000e0: 37c7 a737 274d 0939 4c65 2339 5688 8a38
000000f0: 20e8 5637 f59a 9438 4110 7d38 b8e2 2837

exp_avg_sq f4 [4, 16]
2.618748e-07 4.6933083e-06 1.4201422e-05 2.907967e-07 6.5667297e-07 4.604986e-05 1.8154464e-05 2.528869e-06
1.7833482e-06 0.00018318028 0.000115057104 1.1903755e-05 9.165938e-07 5.7561692e-06 5.677138e-06 1.6484725e-07
9.776678e-07 2.6011676e-05 1.8966875e-05 4.181805e-07 1.0742016e-06 4.123401e-05 0.00019830202 1.7800659e-06
1.5944678e-06 3.947315e-05 6.312061e-05 3.3115425e-06 6.869206e-06 7.498974e-05 4.653285e-05 6.769694e-07
8.296958e-09 7.2689744e-07 9.962383e-07 1.2901775e-08 3.010393e-08 2.4967708e-06 4.4850303e-06 9.523656e-08
7.739456e-08 2.198579e-06 4.7636395e-06 2.494481e-07 8.302066e-08 1.5432673e-06 1.064576e-06 1.2629452e-08
6.817369e-09 5.6785075e-07 7.3014934e-07 9.180502e-09 2.273175e-08 1.8411529e-06 3.2777943e-06 7.1943475e-08
5.746092e-08 1.6796167e-06 3.6859385e-06 1.951876e-07 5.965484e-08 1.1272641e-06 7.9415645e-07 9.269956e-09
00000000: cc97 8c34 367b 9d36 a542 6e37 cb1e 9c34
00000010: 3946 3035 a925 4138 6a4a 9837 a3b5 2936
00000020: 615b ef35 1514 4039 d04a f138 3db6 4737
00000030: d90b 7635 1e25 c136 3e7e be36 de00 3134
00000040: 6938 8335 a633 da37 0e1b 9f37 4a82 e034
00000050: 492d 9035 aef2 2c38 4bef 4f39 99ea ee35
00000060: 7f01 d635 f98f 2538 9f5f 8438 de3b 5e36
00000070: 087e e636 cf43 9d38 442c 4338 fcb8 3535
00000080: 688a 0e32 0320 4335 7db6 8535 9ba6 5d32
00000090: 9f4b 0133 328e 2736 1e7e 9636 da84 cc33
000000a0: 1c34 a633 4d8b 1336 5ad7 9f36 e3eb 8534
000000b0: 1749 b233 4322 cf35 8ee2 8e35 ebf8 5832
000000c0: 363e ea31 686e 1835 7bff 4335 46b8 1d32
000000d0: a643 c332 881d f735 14f8 5b36 587f 9a33
000000e0: f3ca 7633 316f e135 f15b 7736 c294 5134
000000f0: 981b 8033 804c 9735 042e 5535 b341 1f32

exp_avg f4 [2, 4]
-0.019094566 0.018822188 -0.018884258 -0.019530434 0.013232944 -0.012960564 -0.012524697 -0.013170866
00000000: 356c 9cbc fd30 9a3c 29b3 9abc 4afe 9fbc
00000010: fdce 583c 8c58 54bc 6334 4dbc 9eca 57bc

exp_avg_sq f4 [2, 4]
0.00017461447 0.00046201175 0.0001744517 0.00017948408 0.00021925493 0.00017096152 0.00018378232 0.00018875251
00000000: b718 3739 2b3a f239 06ed 3639 e433 3c39
00000010: cce7 6539 2244 3339 b1b5 4039 deeb 4539
